mnist_train.pth (torch, 102415 bytes, 8 tensors)

conv1.weight f4 [6, 1, 5, 5]
00000000: e8bd fd3b 9519 afbd 273a 0cbe f0f2 64be
00000010: 5ffd c0bd 61ac 003e c187 68be b05a cbbe
00000020: eedf e0be dc5d c0be a5ff 7e3d 75e3 b43d
00000030: efbe 55be 8626 7abe 0e9e 08be 5fa7 cf3d
00000040: 9175 693e 4d41 bb3e 1e6a 443e bac5 0f3a
00000050: e881 b13d 6b10 be3e 11ea 073f 0f16 f43e
00000060: 479c 273e 28dd 8e3e a432 bcbc 1432 3a3e
00000070: 0bc3 0fbd b678 0ebe b583 d43e 48b5 113e
00000080: 6674 babc 9dcf 0abe ac9d 94be d539 ba3e
00000090: 8cb1 313e 85be ddbd b98b c7be f62b 54be
000000a0: 8ca5 bcbc d837 933e b4f8 fabd 1e87 92bd
000000b0: 70d6 173d d55e 86bd c0cd a83e c1bb 823e
000000c0: f119 253c bd17 17be d482 8fbe a170 03be
000000d0: 477b 94be 771b df3d d4ba e83e 1248 82be
000000e0: 6abf 84be 5616 36bc 053f 713e e550 d23e
000000f0: fc95 51be f1e9 5fbe 106b bb3d 25ae f83e
00000100: 5587 cd3d 18b8 b6be a173 e0bd 7344 b93e
00000110: 809e 6b3e 158d 263e 07b8 33be db74 a0bd
00000120: 7a1a 633e 85cb 703e 12df 40bd 8276 1cbd
00000130: 4652 3d3e bf51 cabc 2c75 21be 294f 88be
00000140: fe3d e0bb 70f0 ce3b 96ef 7fbe 9d8e f83b
00000150: 239a 7dbe a9ac 2d3e f036 50bd 02a7 26be
00000160: 2666 80be facf 14be e6b8 1a3e 1005 9dbd
00000170: 0754 28bd 6705 5dbc 7ec4 6bbe 339c 823e
00000180: d1b6 a93e b1ac ad3c 5a05 3c3e 13b5 6f3e
00000190: db21 efbe 68d0 82bc 9af9 3b3e 6dc5 dd3e
000001a0: a523 8b3e 1ac6 223d 2163 833e 74a9 023f
000001b0: c126 283e 9d9a aebe f698 933e 352e e03e
000001c0: 58aa debd 07f0 d1be 4c3d 87be 79f2 523d
000001d0: b664 6e3d f953 ecbe 7fce 65be 3d72 073d
000001e0: b70b 0d3e c48d 9fbe bbc5 99bd 4561 ecbc
000001f0: 3052 453e eb25 9a3d 880e 113e 120f 113f
00000200: 2e3a f33e e587 b43e bc7f 9f3d 741b b03e
00000210: 6a28 683e 398d be3e 0bed ad3e e8a7 1abe
00000220: 27a7 92be 9a92 273d dd4d 933c d1e4 ee3e
00000230: 69a8 0abf 6b3b d7be b50e d5be f72b 94be
00000240: 1c33 f0bd 08ec 04be d022 aebe aa15 aebe
00000250: 1539 dcbe 712b 04bd
0.007743586 -0.08549801 -0.13694058 -0.22358298 -0.09423327 0.12565757 -0.22708036 -0.39717627
-0.43920845 -0.3757161 0.06225552 0.088324465 -0.20873617 -0.24428758 -0.13341543 0.101393454
0.22798754 0.36573258 0.19181105 0.00054844806 0.08667356 0.371219 0.5309153 0.4767308
0.16368209 0.27903104 -0.022973366 0.18183166 -0.035098117 -0.13913235 0.41506734 0.1422931
-0.022760581 -0.1355576 -0.29026544 0.36372247 0.17352885 -0.10827354 -0.38973787 -0.20719895
-0.023028158 0.28753543 -0.122544676 -0.07154678 0.037069738 -0.065610565 0.32969475 0.2553387
0.010076986 -0.14755149 -0.280295 -0.12835933 -0.29000303 0.108939104 0.4545504 -0.2544561
-0.25927287 -0.011113724 0.23559196 0.41077343 -0.20467371 -0.21866585 0.0915128 0.48570362
0.10035578 -0.35687327 -0.109595545 0.36185035 0.23009682 0.16264756 -0.1755067 -0.078347884
0.22178069 0.23515137 -0.047087736 -0.038198955 0.18488416 -0.024697183 -0.15767354 -0.26622894
-0.0068433275 0.0063152835 -0.24993739 0.00758536 -0.2476583 0.16960396 -0.050833642 -0.16274646
-0.25077933 -0.14532462 0.15109596 -0.07666981 -0.04109576 -0.013490058 -0.23024175 0.25509796
0.3314729 0.02120051 0.18361416 0.23408918 -0.46705517 -0.015968516 0.18356934 0.43314686
0.27175632 0.039739706 0.25661567 0.51039815 0.16421033 -0.34102336 0.28827637 0.43785253
-0.10872334 -0.4100344 -0.26413953 0.05150077 0.058201514 -0.46157816 -0.22442053 0.03306793
0.13774 -0.31162846 -0.07508417 -0.028854975 0.19269633 0.075267635 0.141657 0.5666362
0.47505325 0.3525993 0.07788035 0.34395945 0.22671667 0.3721712 0.33969912 -0.15103114
-0.28643152 0.040911295 0.017981464 0.46658948 -0.54163224 -0.4203752 -0.41612783 -0.28939793
-0.11728498 -0.12980664 -0.34010935 -0.34000903 -0.430123 -0.03226799

conv1.bias f4 [6]
00000000: 19d9 be3d 04df 3c3d e786 403d 44be 03bd
00000010: 4166 043c 156d 95bc
0.09318752 0.04611112 0.047003653 -0.032163873 0.00808102 -0.01824049

conv2.weight f4 [16, 6, 5, 5]
00000000: ab2a f23c a002 20be 1d10 2b3e dea7 433e
00000010: 7294 9f3d 1e2a b53d 794d 88bd 4d28 ce3c
00000020: e8a7 21bc a1b7 2e3e 4661 703d 694a 1bbd
00000030: 3d3b 0d3a 8fc3 09be 4c8a 4dbd ed0d f93d
00000040: 75e0 5b3d 39d7 8abd d7d2 03be 969f 29be
00000050: 5e5b c33d eed8 19be add1 71bd 9022 02be
00000060: 7043 fd3c 7c3b 99bc 179c 07be 6dcd 063e
00000070: cc36 743d 60e0 a03d ce20 e43d 9394 2bbd
00000080: fbaf 8f3c fb0d 813d 8ebd 373e cd20 84bc
00000090: 41e9 babc 0098 cebd 7a15 09be 301e 96bc
000000a0: b7ff 76bc 3f5a dc3b d10e 98bd 171c dbbb
000000b0: 7d8d 363d 774f b5bd 5e6b 28bd 00e6 b23d
000000c0: 3173 533c 4491 0c3c 1b10 4dbd 5772 e7bc
000000d0: 6868 0bbd 79e1 e9bd b220 57be 9334 5cbd
000000e0: 05ab 923d 005d 2e3d 17dc 3bbc 8ced 23be
000000f0: 721e 9fbc 53fa 553d a7bf febc e828 0f3e
00000100: 228d 62bc 23f2 84bd 2cd7 543d 4422 c83d
00000110: acc3 5a3d b513 063d c987 143d 929d 433c
00000120: 9cd0 9bbd 7210 58bd 7505 b8bc d5d6 68bd
00000130: 19f6 22be 1cbe 84bd 94fd 4b3d c194 e83c
00000140: 1b4b ee3d 6d4f 91bb 2104 8cbd cd11 1b3d
00000150: 7232 5c3d 54be 933d f0c1 1abe 99da a5bd
00000160: 6941 d2bd 4261 a6bc fa3b 84bb 5da7 3bbc
00000170: c048 adbc 73ee e6bd 0c86 d5bd 54b3 18bd
00000180: d5ba f6bd da57 9b3c 7af2 06be 0334 d1bd
00000190: 1d4b 0ebc cd9c 9ebc d56d a2bb 45ac c4bd
000001a0: eb85 34bc 8060 38bc 6e69 d8bc 4183 96bd
000001b0: cab9 dbbd 490a 28be 4679 44bc 505a 68bb
000001c0: f9fc 0a3d 8682 02bb d816 a5bd 2a70 22bd
000001d0: e980 a4bb 7156 9c3c 564c d63b 2a58 f93d
000001e0: 2783 2a3b e4cc 2c3e e56c 383e 7b20 f83d
000001f0: 22a1 0c3c 3793 fe3c 0540 fd3d 886a a93c
00000200: 14a6 863d e4f2 9b3b 7a6d 2cbd 8ef4 ebbc
00000210: 45dc 9e3d fe6b e23c 6763 fabc 4e23 c2bc
00000220: ecc4 c5bd 31be 0ebe 6891 adbd b622 6fbe
00000230: 76f4 2a3d fc09 95bd 9e53 30be 34ab fdba
00000240: 3f5f 3a3d b827 cfbc 741a 9c3d 87b0 f73d
00000250: 39f5 163e c9df 303d d98c bcbd 82d7 293e
00000260: 6927 393e 5a76 5c3c 080d 36bd cb86 4e3e
00000270: 5014 e23d f0f6 4cbd 1771 70bc b650 6dbd
00000280: c2cf 1fbd 1c57 243d 9078 4c3c 16d7 e1bc
00000290: 32af cdbd ed85 7a3e e763 fc3b 0124 28be
000002a0: 210e e7bd e657 92bd 5138 393d a66f 55bd
000002b0: 4fb2 cabd da05 f4bd 0de2 0f3e def7 053c
000002c0: 0cf7 2d3c 22e9 333d dd99 2dbd 85d1 aabc
000002d0: 1d30 09be 18f9 013c fb37 5bbd 09d7 ec3d
000002e0: b7a3 8b3d 3ec8 31be cc15 87bd 0365 6abd
000002f0: 7e2b 723d 4e35 543d 4498 15be 6134 fcbd
00000300: 3b27 713d eb61 103e 800c 5c3e 69e5 a33c
00000310: ae60 72bb 4e8b 203e 6a67 bf3d cb0b 7fbd
00000320: fd42 efbd 5f76 e8bd 63f0 273b 17bf 2abc
00000330: c2ad afbc 331c bd3d 8d8e 03bd 69e6 06be
00000340: 2f31 03bc 090f 953d 22b3 9ebd 662d 56be
00000350: 8b7e afbd 4251 9e3d 3db2 81bc b4ce 57bd
00000360: 8240 db3d 1c40 d73d ee1e 323e 3659 093c
00000370: e438 4d3e 3451 ed3d d921 a0bd f3b4 46bd
00000380: 68e6 01be aaba 8cbd 4856 8bbc d250 453d
00000390: ddbf 8f3d 6703 aebc dd25 8bbd ef75 e0bd
000003a0: 7306 43bc 97fc c8bd 5214 19bb 17bb 28be
000003b0: 5266 1ebe 3f3e 70bd 6847 e3bd 3775 af3d
000003c0: b559 0fbe 4c31 9fbd 8e30 42bd 75b5 753d
000003d0: 65f1 133d 3732 3cbe 2d28 e3bd e475 f23c
000003e0: 1017 e23d db8c 183d ddef 3f3d 894b f3bc
000003f0: e683 be3c 9933 d6bd de9e 39be c535 0abd
0.029561361 -0.15626001 0.16705365 0.19107005 0.077919856 0.08845924 -0.06655402 0.025165701
-0.009866692 0.17062236 0.058686517 -0.03791276 0.00053875503 -0.13453506 -0.05018072 0.12160859
0.053680856 -0.06779332 -0.12873398 -0.16564783 0.09538911 -0.15024158 -0.059037853 -0.12708497
0.030915946 -0.018705122 -0.13243137 0.13164301 0.05962257 0.07855296 0.111390695 -0.04188974
0.017539969 0.06301495 0.17943403 -0.016128922 -0.022816302 -0.100875854 -0.13387099 -0.018324941
-0.015075616 0.0067246254 -0.07424701 -0.006686698 0.044568527 -0.08853047 -0.04111802 0.08735275
0.012905882 0.008579556 -0.050064187 -0.028252764 -0.034035116 -0.114199586 -0.21008566 -0.053761076
0.07161526 0.04256916 -0.011466048 -0.16008586 -0.019423697 0.05224068 -0.031097246 0.13980448
-0.013827594 -0.064914964 0.051963016 0.09772161 0.053409263 0.032733638 0.036262307 0.011939423
-0.076081485 -0.05275006 -0.02246354 -0.056845505 -0.15914191 -0.06481573 0.049802378 0.028391244
0.11635419 -0.004434517 -0.06836725 0.037858773 0.053759046 0.072140366 -0.15113044 -0.08098335
-0.10266382 -0.020310048 -0.00403547 -0.011453477 -0.021152854 -0.11275949 -0.10425958 -0.037280396
-0.12047354 0.01896279 -0.13178435 -0.102149986 -0.008684901 -0.019361878 -0.0049569407 -0.0960317
-0.011018257 -0.011253476 -0.02641746 -0.073492534 -0.10728796 -0.16410173 -0.011991804 -0.003545422
0.03393266 -0.0019914224 -0.08060998 -0.03965775 -0.00502025 0.019084187 0.0065398617 0.12175019
0.0026018114 0.16875035 0.1801029 0.1211557 0.008583339 0.031076057 0.123657264 0.02068068
0.06574646 0.0047591794 -0.042096592 -0.028803136 0.07756857 0.027639385 -0.030564977 -0.023698475
-0.096567005 -0.1393974 -0.08475 -0.23353085 0.041737042 -0.07277295 -0.17219397 -0.0019353391
0.04550099 -0.025287494 0.07622233 0.12094217 0.14741983 0.04318217 -0.09206552 0.16586116
0.1808144 0.013455952 -0.04444602 0.20168607 0.110390306 -0.050040185 -0.0146754 -0.0579383
-0.039016493 0.040122136 0.012479916 -0.027568381 -0.100431815 0.24465151 0.007702339 -0.16419984
-0.11281992 -0.071456715 0.045219723 -0.05210843 -0.09897291 -0.119151786 0.14051075 0.008176772
0.010617983 0.043923505 -0.042383064 -0.02085186 -0.1339726 0.007932924 -0.053520184 0.11564452
0.068183355 -0.17361543 -0.06595954 -0.05722524 0.05912351 0.051808648 -0.14608866 -0.12314678
0.058875304 0.14099853 0.21489143 0.020006852 -0.0036983895 0.1567814 0.093458965 -0.062267106
-0.11682699 -0.113507025 0.002562546 -0.010421536 -0.021445159 0.09233894 -0.03211837 -0.13173832
-0.008007332 0.07278258 -0.077490106 -0.20915756 -0.08569058 0.077303424 -0.015832061 -0.05268736
0.10705663 0.10510275 0.17394611 0.008383086 0.20041233 0.11587754 -0.07818956 -0.04851241
-0.1268555 -0.06871541 -0.017008916 0.04817278 0.07019017 -0.021241857 -0.06794331 -0.10959994
-0.011903393 -0.09813803 -0.002335806 -0.16477619 -0.1546872 -0.058653113 -0.11097604 0.08567279
-0.13999064 -0.077730745 -0.047409587 0.059987504 0.036118884 -0.1837853 -0.11091647 0.02959723
0.11039555 0.037243705 0.04685961 -0.029699104 0.023256253 -0.1045906 -0.1812701 -0.033742685

conv2.bias f4 [16]
00000000: e06b b1bd 0c01 093d f410 c43c eeab aa3d
00000010: fd82 84bc 80e3 8f3d 426c a03b 5bb7 9bbd
00000020: 3e8c 12bc 6aca e1bb 0a09 ef3c 5925 533d
00000030: c9fa ddbc 5fdc cabd f5d5 7bbd c623 66bd
-0.08663154 0.033448264 0.023933865 0.08333574 -0.016175741 0.07025814 0.004895718 -0.07603332
-0.008944569 -0.0068905847 0.029179115 0.05154929 -0.027097123 -0.09905314 -0.061483342 -0.05618646

fc1.weight f4 [84, 256]
00000000: 4a03 cebc 443e bf3b e37a 523d a0a5 463d
00000010: 2a9e 773d 21c3 713d db30 60bd ff23 b33a
00000020: 024f 023d 7392 98bc 8d50 5d3d eb4d e2bc
00000030: a00a b93b 9525 a6bd 4406 f0bc c9a7 11bd
00000040: e5cd 45bc ff85 ae3c 81d2 8a3d 4cc7 11bd
00000050: 580a 793c 8710 b93d 35db 3dbd 0d56 01bd
00000060: fef6 e23c a50b 1e3d 21c7 61bd a456 bbbd
00000070: 1675 103d 4b2d 0b3d 8444 e2bc ee3b 50bd
00000080: e1e8 5d3d c30a 9abd 579e 01bd b53b c5bb
00000090: 8bd0 6d38 e268 6fbc a09e 5abb 293b 1dbd
000000a0: 2714 13bd acd6 dc3c 89f3 50bd 99fb 75ba
000000b0: a79f bd3d f310 a13d a2fc cabc dd28 cabc
000000c0: 621b 4bbd 81c1 9abc 2c87 9c3d b0d0 5fbd
000000d0: 0c56 86bc 6ac0 063c f848 623c 5f51 cb3c
000000e0: fe3e 623c 9d81 a13d 5d00 973c 2d30 dabc
000000f0: be8f 413d aa76 973d 9b16 31bc 6ed1 46bd
00000100: 09b1 04bd 6e2d 273d 01a5 ff3b 1be7 de3c
00000110: aa00 28bd 9670 d83a d4d4 d73b 51eb 92bc
00000120: 098e 6f3d 300c 863c e119 563a 77dc 12bd
00000130: bf13 ab39 ee3e 7d3d d080 773d bbaf 9c3c
00000140: 9f92 4abd f400 dbbb 5c64 5f3b 02cd b5bb
00000150: 4e9a ddbb aa7d 64bd 0456 39bc af11 8ebd
00000160: aa65 973c f6dd 2dbd 723e b1bd 0db5 8fbd
00000170: 1275 a33d cd8a 43bd b61f 4abd cb96 423d
00000180: 31b6 98bd 6432 dd3d b345 b53d f2c0 543b
00000190: 16a3 29bd 5f42 ba3d bca2 0e3c ffc7 1cbd
000001a0: c0a9 7a3d e955 6b3d 455b 7039 61ba ebbb
000001b0: 55e6 173c e63c 113b 4d51 b93b 5158 b9bb
000001c0: 2aa0 78bd b75a b1bd 26f3 e9bc 9f4e 1abc
000001d0: 2c69 ecbc 7b14 bdbd 96de 14bd 2dc3 483d
000001e0: f2df 333d 3b34 123d 5ec2 963d 19fd 353d
000001f0: 4e4a 23bd aa34 173b e777 973d 0247 40bd
00000200: 0897 b2ba 51af 5fbc 072b 043d ec08 393d
00000210: 323a f43c 1c6f e1bc 7b56 5dbd 4cf0 e33b
00000220: 257f e53c 2252 07bd cde4 6cbd 8871 6bbc
00000230: c8d6 d43c f437 4dbc e126 613c f0a4 26bd
00000240: 594d 3a3d 6fa0 abbc 314e ce3c 0f65 6abd
00000250: 099d 2f3c 3e31 993b 1c50 043d e8b3 0bbd
00000260: c759 17bd 8ebb 8cbb d14a d538 8bf9 d8bc
00000270: aa0d 9c3c d4fd 103d 8122 9b3d e8e2 3e3c
00000280: d81f 36bb 226f a5bc 0f09 073d edd4 c8bc
00000290: dde5 09bb 68ab 143d d537 ff3c 3323 6bbc
000002a0: 6fbc e33c fad2 5bbd 35a9 8dbc 0bb1 c0bc
000002b0: 5dd5 6abc 1fe2 7f3d 4bc3 b9bc 84bb 1abd
000002c0: 6c2c 7a3d e52f 9e3d 91c0 97bc 677e 873c
000002d0: 6c4c 783c a5ea 23bd e77d a3bc 032a 5a3d
000002e0: a852 6e3d 57cd 9b3b 268d fa3b 0b5f 4c3b
000002f0: 37c4 203b 73ae bc3b 0f57 b0bc 1f45 953d
00000300: 259a a5bd 9fb5 263d ea24 183e 1b28 bd3c
00000310: 5c63 2f3d 211e ec3d 19bb 2bbc 7e0e 173d
00000320: b13c 963c cfeb 23ba 2425 19bd ddc5 d13c
00000330: 6488 1abc cef8 b23c 3d1c 15bc d492 833c
00000340: 6df0 cabc 94fe 92bd 7bc3 aabc 89ee 313c
00000350: 556d 59bd 8e97 59bd 4e3c b8bd 34ce 94bd
00000360: 0586 9d3c 70b8 64bd 6f1b babd d228 863c
00000370: dcf6 2a3c e44e a6bd fedb 0d3d 2683 90bc
00000380: 290d 3a3d 1871 ac3c 6a16 83bd 92df eebc
00000390: 35f3 febc 816c 0abe 07b4 91bd 8d77 cb3b
000003a0: e5cd 2f3d 4d31 663c e1f1 99bd f8ea 3b3d
000003b0: fa25 0d3c 00bd e2bc 1a26 aabd c770 453d
000003c0: 4253 8bbc 5b5c 3ebd f789 cebd 35d2 073c
000003d0: cae7 b4bc e8c5 933d 8d85 9c3b 21dc 9c3d
000003e0: 9669 60bd e1dc 203d 4d2e 0bbd 86ab 2fbd
000003f0: bad0 ac3d 9495 183d 54c7 703d a565 9d3c
-0.025148053 0.00583628 0.051386725 0.048497796 0.06045357 0.05902398 -0.054734092 0.0013667344
0.03181363 -0.01862452 0.054031897 -0.027625045 0.0056470186 -0.08112637 -0.029299863 -0.035560403
-0.012073015 0.021304129 0.06778432 -0.035590455 0.01520022 0.090363555 -0.04635163 -0.031576205
0.027705666 0.038585324 -0.055121545 -0.09147385 0.03526791 0.03397874 -0.027620561 -0.050838403
0.05417717 -0.07521584 -0.031645145 -0.0060190805 5.6699424e-05 -0.014612408 -0.0033358708 -0.038386498
-0.03590789 0.026957832 -0.051013503 -0.0009383499 0.09258967 0.07864561 -0.024778668 -0.024677688
-0.04958666 -0.018891098 0.076429695 -0.05464238 -0.016398452 0.008224586 0.013811342 0.024819074
0.013808964 0.0788605 0.01843279 -0.0266343 0.047256224 0.0739568 -0.010808612 -0.04853957
-0.032395396 0.04081481 0.0078016524 0.027209809 -0.04101626 0.0016513045 0.0065866504 -0.017934473
0.058485065 0.016363233 0.00081673084 -0.035854783 0.00032630374 0.061827593 0.06042558 0.019126764
-0.049456235 -0.006683463 0.0034086918 -0.0055481205 -0.0067627793 -0.055783905 -0.011312012 -0.06936967
0.018481094 -0.042448007 -0.086544886 -0.070169546 0.07981314 -0.047739793 -0.04934665 0.04750709
-0.07456625 0.10800627 0.08851185 0.0032463637 -0.041415296 0.090946905 0.008705791 -0.03827667
0.061197042 0.057454977 0.00022922184 -0.007193849 0.009271224 0.0022161542 0.0056554438 -0.00565628
-0.06069962 -0.086598806 -0.028558325 -0.009418159 -0.028858744 -0.09232422 -0.036345087 0.04901426
0.043914743 0.035694342 0.07361291 0.044430826 -0.039865784 0.0023072162 0.073959164 -0.04694272
-0.0013625333 -0.0136526385 0.032267597 0.045174524 0.029812906 -0.027518801 -0.054037552 0.006956136
0.028014729 -0.033037312 -0.05783539 -0.01437033 0.025981322 -0.012525547 0.01374218 -0.04068464
0.04548392 -0.020950524 0.025183769 -0.057225283 0.010718592 0.0046750596 0.03230296 -0.03410712
-0.036950853 -0.004294819 0.00010170567 -0.026486179 0.019049484 0.03539832 0.075749405 0.011650778
-0.0027789976 -0.020194594 0.032967623 -0.024515593 -0.002104155 0.03629628 0.031154552 -0.014351654
0.027799813 -0.053668 -0.017292598 -0.02352192 -0.014333096 0.062471505 -0.02267613 -0.037776485
0.06107752 0.07723979 -0.01852444 0.016539766 0.015154939 -0.040018696 -0.019957496 0.05326272
0.058184296 0.004754703 0.0076462207 0.003118458 0.0024531016 0.0057581007 -0.021525888 0.072885744
-0.08086041 0.04070055 0.14857832 0.023090413 0.042819366 0.11529184 -0.010481619 0.036879055
0.018339487 -0.0006253095 -0.037388936 0.025607044 -0.009431932 0.021847155 -0.009100971 0.016061224
-0.024772847 -0.07177463 -0.020845165 0.010860094 -0.053082783 -0.05312305 -0.08995877 -0.072658926
0.019228945 -0.055839956 -0.09087264 0.016376887 0.010434832 -0.08120516 0.03463363 -0.017640661
0.045422707 0.021050021 -0.064007595 -0.029159341 -0.03112183 -0.13517953 -0.071144156 0.00620932
0.042920966 0.01404984 -0.07516838 0.04587838 0.008615011 -0.027678013 -0.083080485 0.048203256
-0.017007474 -0.046474796 -0.100849085 0.008289863 -0.022083182 0.07215482 0.0047766627 0.07659174
-0.054788195 0.039273147 -0.033979703 -0.042888187 0.08438249 0.037252024 0.058783844 0.019213507

fc1.bias f4 [84]
00000000: 87bb f93c 8fca 55bd 91a2 9e3d 0580 283d
00000010: 5959 883d d1aa 3b3d 9eba 98bc 925b aebc
00000020: 0943 52bd 98e9 5ebd 17f0 393d 6be8 d43d
00000030: 2236 74bd af03 bebc 1831 b4bc c398 353c
00000040: d984 763a 333a 123d 14f3 d23c d548 443d
00000050: 1c34 8b3c e583 27bd bdcc 05bc 0977 603d
00000060: 1df2 66bc d154 003c c07c 00bc 9382 5cbd
00000070: 588e 60bd 5f49 8d3c 76a6 e3bc 50ce 45bc
00000080: 15c5 a1bc 0cae ca3c dc6c 03bd 8780 8c3c
00000090: 64a2 a4b8 c8e1 02bd dd0b d33c 7daf 00bd
000000a0: d7ef 1b3d 23e9 403d 9a31 40bc 85ee 76bb
000000b0: 6bb6 153d 1d93 62bd 983e 4cbd a1ca 10bd
000000c0: 8b46 38bd b076 73bc c26d cbbc da7a d03c
000000d0: 842f 29bc 0d79 87bd 1225 c93c fd18 c23b
000000e0: 21ba 1c3d 4a26 cd3b 8ff7 e9bc 016f 0fbc
000000f0: bb80 b63a 8f7c 9a3d 4ac7 0bbc fb2a 09bd
00000100: e95b 223a 5cdf b5bc 8625 453d 527c 963d
00000110: 2846 603d bc9f 393d da7b 1e3b da16 34bd
00000120: 4e64 783d 7ccc 93bb 8930 9bbb 61c3 263d
00000130: 49dd 3cbc c36d 2b3d dbe2 ea3c ab30 d93a
00000140: d46e 403c de2b e9bc 37af dd3c abf8 513d
0.030484928 -0.052195128 0.07745851 0.041137714 0.06657667 0.0458172 -0.018643674 -0.021283899
-0.05133346 -0.05442199 0.045394983 0.10395893 -0.059621938 -0.023195116 -0.021996066 0.0110837845
0.0009403951 0.035700034 0.025750674 0.04792102 0.016992621 -0.04089727 -0.008166489 0.05480102
-0.01409581 0.007832722 -0.007842243 -0.053835463 -0.05482325 0.0172469 -0.027789336 -0.0120731145
-0.019747296 0.024741195 -0.03208624 0.01715113 -7.850377e-05 -0.031953603 0.025762493 -0.03141736
0.038070526 0.047097337 -0.011730576 -0.003767879 0.03655092 -0.05531608 -0.04986438 -0.035349492
-0.04498915 -0.01485984 -0.02483261 0.025449205 -0.01032627 -0.066148855 0.02455381 0.005923389
0.038263444 0.006260668 -0.028560428 -0.008754493 0.0013923863 0.07543289 -0.008531401 -0.033488255
0.0006193505 -0.022201233 0.04813149 0.07347931 0.054754406 0.04531835 0.0024182708 -0.043967105
0.060642533 -0.0045104604 -0.0047360105 0.04071367 -0.011527368 0.041852724 0.028672626 0.001657029
0.0117451735 -0.0284633 0.027061088 0.05126254

fc3.weight f4 [10, 84]
00000000: df69 393e 94c0 0bbe 9ab0 643e 1249 923c
00000010: a7b0 53be 5bdc 35be f11a 8d3d a9df 3bbe
00000020: 2716 ec3a 52ac 13be d047 8e3e d1cf 15be
00000030: 085b a9bd a5e1 4d3e 4565 04be 7907 fdb9
00000040: 04f4 563e f16d 73bd 05c3 363e d271 47be
00000050: 1fa8 e83b 1a03 ad3c fada 55be 6dc3 af3e
00000060: 8b03 56be 1ad7 923d fa9d e5bd 4a4e 033d
00000070: 63aa 7c3d 3811 c73e 2c38 90bd 9f43 0cbe
00000080: d3cc 893d bbd3 afbd b215 e5ba 7265 f5bd
00000090: ec0a 0dbd 3031 0bbe ae7b 60be 9aca 3f3d
000000a0: bcad babc 6609 ad3b 9f91 cfbc a673 efbd
000000b0: 9df1 83be 5e6b 1c3e aa39 1b3c 01c1 a43d
000000c0: 157d f33d 6e22 e63d 9d1d 223d 33a2 6bbb
000000d0: 5e5d e8bb 45f2 533e d6a3 a63d ae0d 333c
000000e0: 8f40 d53d 1cff 8b3c a00a 86bd edd5 523e
000000f0: 0165 23bd 34d5 62be 0f0d 5ebb 8154 f93d
00000100: 0ce0 a23c b9f4 2ebd 36a2 973d 2c69 51be
00000110: 5263 373e b75f 27bd 43bd 8c3e fe82 783d
00000120: 784d 6c3d 80c4 603d 1743 afbb c16a bbbd
00000130: de8c c53d 7f79 b43c 5500 91bd 71c0 b5bd
00000140: 90b4 f5bc 4aa8 d4bd f844 693d b31e c4bc
00000150: 07bd 5e3e ec8c 413e ff31 1ebc 1e4d 563e
00000160: 5d58 933e 662a b33d b675 36be 790f 363d
00000170: 8c92 ed3d 4a80 83be 91e6 82bd 070d 033e
00000180: b20b 103d a2fb 0fbe 2eaa 3dbe 1a48 1dbe
00000190: 1c81 903e 5bae a73d f42d cbbd 5ce9 8a3d
000001a0: 9f85 9e3c e576 093e 492c dbbe e929 40be
000001b0: 2003 ca3e 9a61 cfbd 596c 21bd 5333 aa3d
000001c0: 0d0d 6c3d 4e69 433d 2871 773c 0583 fabd
000001d0: e216 52be 6f01 803e 5b91 323d f1ab 613d
000001e0: 691c 37bd eb41 233d 0dbe 18be 209f 853d
000001f0: 335b 45be fdf0 e33c 0a01 56be 5c78 93bc
00000200: ebdc de3d 53e6 163c ea44 7fbd 7d2d d43d
00000210: ffe1 1abe 1055 93bd 6ecd 913b 88df 99bc
00000220: 9356 bb3d 0625 ad3c aa76 3dbe 6f64 8bbe
00000230: 7a79 113e f6a6 c53d d928 17be 563a 03bd
00000240: f85a 31be 9523 243e a0df f33d 68db bcbc
00000250: ccf2 1abe 6575 be3c 1bf1 3bbe ac85 bb3e
00000260: 1cb5 303e 51de 2e3e 8166 25bd e5d8 903c
00000270: 1ae4 003e b220 063e 458d a23a 4830 a3bd
00000280: ad72 60bd d222 9a3e 1404 9d3c 20d6 223e
00000290: 8a2b 1c3e 15bd 39be 2e6f 09bc ffe4 cc3d
000002a0: bf6b ebbd 1dea 8f3d d5f2 453d e8c4 f7bd
000002b0: a121 753e f505 643e 61d0 0b3e 49f5 65bd
000002c0: 1bf6 19bc 667b ebbd bda5 673e 9d2e 8cbe
000002d0: 0ff8 903e 968b d9bd 139e 1dbe 7234 143e
000002e0: 9cd1 2dbe f99e 0cba 2751 73be 486f 21be
000002f0: e140 333e e9f3 6b3e c54d 6abe 8504 89be
00000300: 5d25 f63c c35a 4f3b 3904 fbbc 3b1a d6bd
00000310: 13d4 9a3d 93e1 003e d6b3 e83d de7c 273e
00000320: 9309 e03d 13d5 723e 3310 8c3d b108 0fbe
00000330: 552a 2e3e bb34 4a3e 488c 67be cded 2bbd
00000340: 0246 1cbd 7269 333d 6ff4 cbbd 5206 3d3e
00000350: e68c fdbb e0c1 523c 6b1b 8bbd 9051 9f3d
00000360: fe3d d5bc 14af bbbc c531 f43d f4fc d0bd
00000370: 8fa2 aebd e609 9f3e b8dc 8fbd 0ca3 de3d
00000380: 87aa dbbd 0c54 903c 07d9 233d b26a 6a3e
00000390: f0dd 0a3e 3814 133d fdb8 c93b 080a 8ebd
000003a0: d00e 523e c3cd 2ebc 15a3 a4be b543 22be
000003b0: 36f1 81be c927 403e f143 5bbe 49c0 bf3d
000003c0: 8400 17be 7229 f93d 89f1 a93d de08 5f3e
000003d0: 3d55 bd3c f5df 923e 3329 593e b5ba 91bd
000003e0: b55b dcbd 3f1e 183e 2880 693c b9bd e93d
000003f0: 64c1 34be 3369 ac3d 04ae 6c3e afcf 0ebe
0.18106793 -0.13647681 0.22332993 0.017857108 -0.20672856 -0.1775984 0.06889904 -0.18347038
0.0018011973 -0.14421204 0.27789164 -0.14630057 -0.08269316 0.20105608 -0.12929256 -0.00048261488
0.20991522 -0.05943102 0.17847832 -0.19477013 0.0071001197 0.021119643 -0.20884314 0.34328786
-0.20899789 0.071699336 -0.11211772 0.032057084 0.06168593 0.38880324 -0.07041964 -0.1369767
0.0672852 -0.08585306 -0.0017477779 -0.1198224 -0.034434244 -0.13592982 -0.2192218 0.046824075
-0.022787921 0.0052806614 -0.025337992 -0.1169198 -0.25770274 0.15275332 0.009474197 0.08044625
0.11889092 0.11237036 0.039579023 -0.0035954833 -0.0070912084 0.20697887 0.08136718 0.010928554
0.10412704 0.017089419 -0.06544995 0.20589419 -0.039891247 -0.22151643 -0.0033882295 0.12174321
0.019882225 -0.042713854 0.07403986 -0.20450276 0.17908981 -0.040862765 0.27488145 0.0606718
0.057691067 0.054874897 -0.005348574 -0.09151221 0.09646009 0.02203059 -0.070801415 -0.08874596
-0.029993325 -0.10383661 0.05695054 -0.02394042 0.21751796 0.18901414 -0.009655475 0.20927855
0.28778353 0.08748321 -0.1781834 0.04444835 0.11600217 -0.25683814 -0.06391633 0.12797938
0.035167404 -0.14060834 -0.1852195 -0.15359536 0.28223503 0.081875525 -0.09920874 0.06782791
0.019350825 0.13424261 -0.42807224 -0.18765987 0.3945551 -0.10126038 -0.03940997 0.083105706
0.057629634 0.04770785 0.015102662 -0.12232021 -0.20516542 0.25001094 0.043595653 0.055095617
-0.04470483 0.039857786 -0.14916249 0.06524491 -0.19273071 0.027824873 -0.20898834 -0.018001728
0.108819805 0.009210187 -0.06232158 0.10360239 -0.15125273 -0.07193959 0.004449538 -0.018783346
0.09147372 0.021135818 -0.18502298 -0.27225062 0.14206496 0.09650986 -0.14761676 -0.032038055
-0.17319858 0.16029198 0.119078875 -0.02305384 -0.15131682 0.023249337 -0.18353693 0.3662542
0.17256588 0.17076994 -0.04038096 0.017681548 0.12587014 0.1309841 0.0012401721 -0.07968193
-0.054796863 0.3010469 0.019166984 0.15901995 0.15250984 -0.18138535 -0.008388324 0.10004615
-0.1149516 0.070270754 0.048327286 -0.12098104 0.2393861 0.22267897 0.13653709 -0.056142125
-0.009397055 -0.11498146 0.22621818 -0.27379313 0.28314254 -0.10622327 -0.15392332 0.14473131
-0.16974491 -0.0005364265 -0.23761426 -0.15765107 0.17505218 0.23042263 -0.22881229 -0.2676126
0.030047113 0.0031639792 -0.030641662 -0.10454222 0.07559981 0.1258605 0.11362426 0.16356227
0.10939326 0.23714094 0.06839027 -0.1396816 0.17008336 0.19746678 -0.22612107 -0.04197483
-0.038152702 0.043801732 -0.099587314 0.18459442 -0.0077377437 0.012863606 -0.06792339 0.07779229
-0.026030537 -0.022910632 0.11923555 -0.10204497 -0.08527099 0.3106224 -0.07024521 0.108709425
-0.10725885 0.017618202 0.040001895 0.22892264 0.13561225 0.035907954 0.0061560855 -0.06935507
0.20513463 -0.010669175 -0.32155672 -0.1584614 -0.25379342 0.18765177 -0.21412636 0.09362847
-0.1474629 0.12166108 0.08298022 0.21780726 0.023111934 0.2868649 0.21207123 -0.0711569
-0.10759679 0.14855288 0.014251746 0.1141314 -0.17651898 0.08418503 0.23113257 -0.13946413

fc3.bias f4 [10]
00000000: 2285 9f3b b05d fc3d 2f52 58bd 464d 9ebd
00000010: cab2 b8bd bfe5 283d 1766 0bbd 5991 6ebb
00000020: 934c a43d b1ec c23d
0.0048681656 0.12322557 -0.05281275 -0.077295825 -0.09018476 0.041234728 -0.034032907 -0.0036402552
0.08022418 0.095178016
