mnist_train_mlp.pth (torch, 173719 bytes, 6 tensors)

network.0.weight f4 [50, 784]
0	0xbc88879a	-0.016666222
1	0xbc470edf	-0.012149542
2	0x3cb5e7cd	0.022205258
3	0xbcb508d0	-0.022098929
4	0xbcdab492	-0.02669743
5	0x3c1a0fdd	0.009403196
6	0x3a84600e	0.0010099427
7	0x3b8e4d6a	0.0043427246
8	0xbc26acc9	-0.010173031
9	0x3c3e5b30	0.0116184205
10	0xbc10f6c1	-0.008847893
11	0xbb9b175c	-0.0047330093
12	0xbc595d73	-0.013266909
13	0x3a2ddf41	0.00066326937
14	0x3c74807a	0.014923209
15	0xbc9ccb08	-0.019139782
16	0x3ccb5ffd	0.024826044
17	0xbcc31272	-0.023812506
18	0xbd1e2d44	-0.038617387
19	0x3bd413d2	0.0064720893
20	0xbc8dac30	-0.01729402
21	0x3bd52f1c	0.00650586
22	0x3a1dbce8	0.0006017224
23	0x3708eac7	8.160895e-06
24	0xbca1789f	-0.019710837
25	0xbc86b06a	-0.016441543
26	0xbd223a11	-0.039606158
27	0xbd04fb48	-0.032466203
28	0x3cc2afe9	0.023765521
29	0xbce621ee	-0.02809235
30	0xbccce7a5	-0.0250128
31	0xbccb1132	-0.024788473
32	0xbcf82a42	-0.030293588
33	0xbc85672f	-0.016284553
34	0xbd07e4f0	-0.033177316
35	0xbbe390b2	-0.0069447393
36	0xbc8a43d0	-0.016878039
37	0x3abaf8f8	0.0014264872
38	0xbc353237	-0.011059335
39	0xbc5ff506	-0.013669258
40	0xb9d127ae	-0.0003989315
41	0xbc68938d	-0.014195335
42	0x3d02358a	0.03178934
43	0x3c32baab	0.010908763
44	0xbc3e6f74	-0.011623252
45	0xbc5f3819	-0.013624215
46	0x3c5ca6c9	0.013467499
47	0x3ca11f8e	0.019668367
48	0x3c419412	0.011815088
49	0xbc918661	-0.017764272
50	0xbc92e92a	-0.017933447
51	0x3c8b2054	0.016983189
52	0xbb9efb2a	-0.0048517184
53	0x3cc9ac91	0.024618419
54	0x3b91b8b9	0.0044470695
55	0xbcac7134	-0.021050073
56	0xbd015c23	-0.03158201
57	0x3c8ac74c	0.016940735
58	0xbcc9173c	-0.024547212
59	0x3c260a04	0.010134224
60	0xbbd37a89	-0.0064538163
61	0xbcd8a7b7	-0.02644716
62	0xbcfaba34	-0.030606367
63	0xbcafe1d2	-0.021469984
64	0x3b34a7a4	0.0027565742
65	0x3cbdd090	0.02317074
66	0xbcc6d050	-0.024269253
67	0xbcab362d	-0.020899856
68	0x3c9c8dc5	0.01911057
69	0xba1333d2	-0.0005615327
70	0x3c47b08d	0.012188089
71	0xbc98ae2e	-0.018637743
72	0x3b2f8f05	0.0026788127
73	0xbd0e4c0d	-0.034740496
74	0xbc61b07d	-0.013774988
75	0x3c16afd9	0.009197199
76	0xbd343c99	-0.044003103
77	0xbd25337d	-0.040332306
78	0xbd23c2df	-0.039980765
79	0xbcdc29de	-0.026875433
80	0xbc2bae7a	-0.01047861
81	0xbb15f5f1	-0.0022882188
82	0x3c8cf072	0.017204497
83	0x3bd146d9	0.0063866195
84	0xbc97256e	-0.018450465
85	0xbb490b22	-0.0030676802
86	0x3cd78f5b	0.026313474
87	0xbb19c189	-0.0023461303
88	0xbcfb4598	-0.030672833
89	0xbcc3db93	-0.023908412
90	0xbc1422e4	-0.009041522
91	0xbc0a4bb8	-0.008440904
92	0xbc181ccc	-0.009284209
93	0xbc948173	-0.018128132
94	0xbd17dee5	-0.037077803
95	0xbc10e707	-0.008844144
96	0x3ccf173b	0.025279632
97	0x3ca41bfd	0.020032877
98	0x3cbbd80b	0.022930166
99	0x3ca60407	0.020265592
100	0x39e92cc4	0.00044474576
101	0xbc027216	-0.0079617705
102	0x3c801515	0.015635053
103	0x3cdd3752	0.027003918
104	0xbc07be8b	-0.008285175
105	0x3c1d1447	0.009587354
106	0x3c05d711	0.008168952
107	0xbb94028a	-0.0045169042
108	0xbc0bd814	-0.008535404
109	0x3cbf7433	0.023370838
110	0xbcf787d9	-0.030216144
111	0xbd039be2	-0.032131083
112	0xbc8b4775	-0.017001847
113	0xbc5edbe7	-0.0136022335
114	0xbc11ee3d	-0.008906898
115	0x3c28cad7	0.010302267
116	0xbc309e1b	-0.010779883
117	0x3ca065a7	0.019579722
118	0xbc917a0e	-0.017758396
119	0x3d23796b	0.039910715
120	0x3d07847a	0.033085324
121	0x3a3946c9	0.0007067738
122	0x3d0aaf7d	0.033858765
123	0x3d4935db	0.049123626
124	0x3dd7d8e9	0.10539419
125	0x3d92e432	0.07172431
126	0x3d965313	0.07340064
127	0x3dff1948	0.12455994
128	0x3d733927	0.059380677
129	0x3cf570bc	0.029960983
130	0x3db0423d	0.08606384
131	0x3d5567db	0.052100997
132	0x3cc679a4	0.024227925
133	0xbba5056b	-0.0050360463
134	0x3adf4cc7	0.0017036431
135	0xb95240eb	-0.00020051344
136	0xbd1aee36	-0.037824832
137	0x3cf87fda	0.030334402
138	0x3cf1bdcd	0.02950945
139	0x3bf70da4	0.007539468
140	0x3c64d315	0.0139663415
141	0xb94623fd	-0.00018896158
142	0x3bf963f1	0.007610791
143	0xbc55a363	-0.013039443
144	0x3d183b93	0.03716619
145	0x3d59ef82	0.053206928
146	0x3c8ba7b7	0.017047746
147	0x3d62dd4d	0.05538683
148	0x3bf2065c	0.007386012
149	0xbbf24066	-0.007392931
150	0xbbe6c1e6	-0.0070421575
151	0x3bd1eca8	0.0064063855
152	0x3d82f982	0.06395246
153	0x3d5c4cfb	0.05378435
154	0x3dd4be94	0.103879124
155	0x3e0d574e	0.13802835
156	0x3deec1e5	0.11658076
157	0x3d937422	0.07199885
158	0x3d65896e	0.056039266
159	0x3db438e5	0.08799914
160	0x3d900a8a	0.0703326
161	0x3c431128	0.011905946
162	0x3c92ea2a	0.017933924
163	0xbd0febb2	-0.035136886
164	0x3c7856f9	0.015157455
165	0xbbe680cb	-0.0070343963
166	0x3bb845bd	0.005623548
167	0x3c2735df	0.010205715
168	0xbd1810b9	-0.037125323
169	0xbba6f7e0	-0.005095467
170	0xbd1dd3a9	-0.038531933
171	0xbc38e8f4	-0.011286009
172	0x3b3808dd	0.0028081455
173	0x3a5ee3c3	0.0008502567
174	0x3d3d6614	0.046239927
175	0xbcce3d0f	-0.0251756
176	0xbb39b956	-0.0028339229
177	0xbd32a0f4	-0.043610528
178	0xbd5d155b	-0.053975444
179	0xbcca854a	-0.02472176
180	0xbc67e3c4	-0.014153425
181	0x3ba90426	0.0051579652
182	0xbd42eb55	-0.04758771
183	0xbccdb1c2	-0.025109176
184	0x3d59f7af	0.053214725
185	0xbc02f949	-0.0079940045
186	0x3d24661f	0.040136453
187	0x3d4f8a82	0.0506692
188	0x3d8ada8d	0.067799665
189	0xbc3625e1	-0.0111174295
190	0xbc1bbb9b	-0.009505178
191	0x3cc91075	0.02454398
192	0xbd26ba90	-0.040705264
193	0x3cc70b70	0.024297446
194	0x3bf6f56d	0.0075365813
195	0x3c72bad4	0.014815051
196	0xbc453133	-0.012035656
197	0xbb474756	-0.003040751
198	0xbc2ead11	-0.010661379
199	0xbcf92ccd	-0.03041687
200	0x3c4fec1b	0.012690569
201	0x3d671ddb	0.056424957
202	0x3c25c576	0.010117879
203	0xbcf61a41	-0.030041816
204	0xbd43f9a7	-0.04784551
205	0xbd7fe7ab	-0.062476795
206	0xbd6bd6d7	-0.057577934
207	0xbdbd83d9	-0.092536636
208	0xbd4d3953	-0.050103497
209	0xbd6d054f	-0.05786639
210	0xbd8f0d54	-0.06984964
211	0xbd48a9f5	-0.04899021
212	0xbd52beb0	-0.051451385
213	0xbd2021f5	-0.039094884
214	0xbd0f0a45	-0.034921903
215	0x3c9bddb6	0.019026618
216	0x3d363607	0.04448512
217	0x3d3c5a08	0.045984298
218	0xbc77ce8e	-0.01512493
219	0xbce2aff4	-0.027671792
220	0x3c56c010	0.013107315
221	0x3c465a90	0.012106553
222	0x3a7414d7	0.00093109667
223	0x3b012605	0.00197065
224	0xbcc843f9	-0.024446474
225	0x3c2587a8	0.010103144
226	0xbd113cba	-0.035458304
227	0xbd108709	-0.03528503
228	0x3d1c9e3a	0.038236834
229	0x3c9f7e90	0.01946953
230	0xbc4fe0a2	-0.012687834
231	0xbab4e1e7	-0.0013800234
232	0xbd3c753b	-0.046010237
233	0xbd16e64e	-0.03684073
234	0xbd7c6592	-0.061620302
235	0xbd9cccd6	-0.07656257
236	0xbcf2cd4c	-0.029638909
237	0xbd9e90dd	-0.07742474
238	0xbe036b6b	-0.12833945
239	0xbdfc1eeb	-0.12310585
240	0xbc06daa9	-0.008230844
241	0x3d015720	0.03157723
242	0x3cd763ab	0.026292643
243	0x3da2c332	0.07947387
244	0x3c7abbca	0.015303561
245	0xbbc1843a	-0.005905655
246	0x3c4854fb	0.012227292
247	0xbaf5ea4e	-0.0018761845
248	0xbb974f80	-0.0046176314
249	0x3c168d91	0.0091890255
250	0xbbc872b9	-0.0061171916
251	0x3cb09029	0.021553116
252	0xbb9a061b	-0.004700435
253	0x3c03f5a4	0.008054171
254	0x3cb89d0e	0.022535827
255	0x3c9f5880	0.01945138

network.0.bias f4 [50]
0	0x3c9c1829	0.01905449
1	0xbc74d4e4	-0.014943335
2	0xbc6ad83e	-0.014333783
3	0xbbf5977a	-0.007494864
4	0xbc67ccc9	-0.014147946
5	0x3cc09adf	0.023511348
6	0xbccd2b9f	-0.025045214
7	0xbcc7c490	-0.02438572
8	0x3ac6d733	0.0015170336
9	0x3d06be15	0.03289612
10	0xbcbbf973	-0.022946095
11	0xbc6ba64f	-0.014382913
12	0x3c6ffda7	0.014647878
13	0x3b9ff794	0.0048818085
14	0x3c89ab64	0.016805358
15	0x3cbf52e9	0.023354964
16	0xbcbae1a2	-0.022812668
17	0xbc67adf1	-0.014140592
18	0x3b3337a7	0.0027346404
19	0x3c81022b	0.015748104
20	0xbd16a191	-0.036775175
21	0x3bf1db0d	0.007380849
22	0xbd1c5464	-0.03816642
23	0x3c0c85cf	0.008576824
24	0xbc1fb1f4	-0.009747017
25	0xbb656c4c	-0.0035007177
26	0x3c6dd929	0.014517107
27	0x3d1eb35a	0.03874526
28	0x3cb955ae	0.022623863
29	0xbd0d5df8	-0.034513444
30	0x3cbcb254	0.023034252
31	0xbd083ea6	-0.03326287
32	0x3ca42c14	0.02004055
33	0x3d28e2e4	0.041232005
34	0x3ba27d4c	0.004958784
35	0x3bfe13c8	0.007753823
36	0xbd1478ba	-0.036247946
37	0xbc526a98	-0.012842797
38	0xbd4ca4ea	-0.04996196
39	0xbc0e44ac	-0.008683365
40	0x3d0b45aa	0.034001984
41	0x3c533622	0.012891324
42	0xbcea6cf1	-0.0286164
43	0x3bd1af94	0.0063991044
44	0xbc2e1669	-0.01062546
45	0x3c1cecba	0.009577924
46	0xbc889853	-0.016674196
47	0x3ac77e61	0.0015220159
48	0xbc826563	-0.015917486
49	0x3c522a1d	0.012827423

network.2.weight f4 [60, 50]
0	0xbe868c08	-0.2627871
1	0x3d5a803a	0.053344943
2	0x3d0ff988	0.03515008
3	0xbde414ca	-0.11136778
4	0xbc8d1d4e	-0.017225888
5	0xbe27f440	-0.16401768
6	0xbe2ea934	-0.17056733
7	0x3e0aec42	0.13566688
8	0x3e0176ad	0.12642927
9	0xbcd65712	-0.026164565
10	0x3dc04220	0.09387612
11	0x3dacc6f2	0.08436383
12	0x3df5c849	0.12001092
13	0xbe0ffefb	-0.14062111
14	0xbe2e8762	-0.17043832
15	0x3d256653	0.040380787
16	0xbe52d946	-0.20590696
17	0x3d8d4463	0.06897809
18	0x3e5ab39a	0.21357575
19	0x3c862bfd	0.016378397
20	0x3d9573c7	0.072974734
21	0xbe66ab71	-0.22526337
22	0xbded8715	-0.115980305
23	0xbdea4a9a	-0.1144001
24	0xbccefb66	-0.02526636
25	0xbe451d0e	-0.19249365
26	0xbe1c1a54	-0.15244418
27	0xbe02c5b4	-0.1277073
28	0x3e0ed3bf	0.13947962
29	0xbb3af8d0	-0.0028529651
30	0xbdf5771f	-0.11985611
31	0xbde645b6	-0.11243765
32	0x3d853a09	0.0650521
33	0x3e18db44	0.14927393
34	0xbddf316f	-0.108981006
35	0xbc4f6500	-0.012658358
36	0x3dadbe81	0.08483601
37	0xbeaa0c8b	-0.33212695
38	0x3d9a07d4	0.07521024
39	0xbd769abc	-0.06020616
40	0x3e3e662f	0.18593667
41	0xbdfabbdf	-0.12242865
42	0x3cc3b13a	0.02388822
43	0xbd94b88f	-0.07261764
44	0xbe0ac0d6	-0.13550124
45	0x3da5d258	0.080967605
46	0x3c63e0da	0.013908589
47	0xbd35d44b	-0.04439191
48	0x3e0eb5fc	0.13936609
49	0x3e3d5598	0.18489683
50	0xbdbc3117	-0.09189051
51	0xbd886a57	-0.06660908
52	0xbe235a0d	-0.1595232
53	0x3cc82ff6	0.024436932
54	0x3d62ea28	0.05539909
55	0x3e00691b	0.12540095
56	0xbd95b91a	-0.07310696
57	0xbd62368a	-0.055227794
58	0x3dfbec5c	0.12300941
59	0xbddbc1e4	-0.10730341
60	0xbd896794	-0.06709209
61	0x3dfb0a4b	0.122578226
62	0xbd85036a	-0.06494792
63	0xbddf7548	-0.109110415
64	0x3db5fcd8	0.08886117
65	0xbe175b5d	-0.14780946
66	0x3e05a44d	0.13050957
67	0xbda27d4f	-0.07934057
68	0xbdeb60f0	-0.11493099
69	0x3c844521	0.016146244
70	0xbe181beb	-0.148544
71	0xbc71def1	-0.014762626
72	0x3d1607b8	0.036628455
73	0xbdb7af6f	-0.08969008
74	0x3dc9ca01	0.09852982
75	0x3e0314b3	0.12800865
76	0xbd744ada	-0.059641697
77	0xbda53df9	-0.08068461
78	0xbe013f0f	-0.12621711
79	0x3c47b177	0.012188307
80	0x3c14fd39	0.009093576
81	0x3e0055c5	0.12532718
82	0x3dcd3c0e	0.1002122
83	0xbbbfb7a3	-0.0058507486
84	0xbdf9914d	-0.12185917
85	0xbd400c0e	-0.046886496
86	0xbd75b723	-0.059989106
87	0xbcbd7372	-0.023126338
88	0xbd726613	-0.059179377
89	0x3da35d3d	0.07976768
90	0xbd79f84c	-0.06102781
91	0xbddddce2	-0.10833146
92	0x3ded56c5	0.115888156
93	0x3d2d668a	0.042334117
94	0x3d6cc863	0.05780829
95	0x3bef16ed	0.007296434
96	0xbd270fc2	-0.040786512
97	0xbd8af550	-0.06785071
98	0x3dc425db	0.09577533
99	0x3dbcd814	0.09220901
100	0xbe4aeff0	-0.19818091
101	0xbdc68b94	-0.09694591
102	0xbe267672	-0.16256121
103	0x3e5280e1	0.20556976
104	0x3e3a3ad6	0.18186507
105	0xbc891db5	-0.016737798
106	0x3e9eb981	0.31000903
107	0xbd689343	-0.056781065
108	0x3dd2880e	0.102798566
109	0x3c0fbe03	0.00877333
110	0x3d903fa1	0.07043386
111	0x3e28f366	0.16499099
112	0xbe060129	-0.1308638
113	0xbde1090f	-0.10988056
114	0xbde8f55f	-0.11374926
115	0xbdb9fdd8	-0.0908162
116	0x3e3d91d6	0.18512663
117	0x3dec86a3	0.115491174
118	0xbdf9c052	-0.12194885
119	0x3d68ea8e	0.056864314
120	0x3e7cca92	0.2468665
121	0x3d9353ad	0.07193694
122	0x3d7a4abe	0.061106436
123	0x3e115129	0.14191116
124	0x3e31dd45	0.17369564
125	0x3e826472	0.2546726
126	0xbe6e96bf	-0.23299693
127	0xbda0871f	-0.07838272
128	0x3e34fc4c	0.17674369
129	0xbd051357	-0.032489147
130	0xbe0bf905	-0.13669212
131	0x3dc3717a	0.09543128
132	0xbe147a90	-0.14499879
133	0xbd6313e0	-0.055438876
134	0x3d91060c	0.070812315
135	0x3cb199f9	0.021679865
136	0xbe506825	-0.20352228
137	0x3d493c26	0.049129628
138	0xbe39fb50	-0.18162274
139	0xbdf67cf3	-0.12035551
140	0x3d6c5163	0.057694804
141	0x3e3e4a20	0.18582964
142	0xbd73b813	-0.05950172
143	0x3ce4948d	0.027902866
144	0xbc2c3553	-0.01051076
145	0xbd894a68	-0.06703645
146	0xbe34ece6	-0.17668495
147	0xbca0c198	-0.019623563
148	0x3d729c72	0.05923123
149	0x3d49a37e	0.049228184
150	0xbcb88476	-0.0225241
151	0x3d697ad9	0.057001922
152	0x3dbf5e39	0.093441434
153	0xbe0f0f77	-0.13970743
154	0xbd0b09b7	-0.03394481
155	0x3d6db786	0.05803635
156	0xbe02760a	-0.12740341
157	0x3df5c1b8	0.119998395
158	0xbde8d393	-0.113684796
159	0x3d1d638b	0.03842501
160	0x3ce3fd27	0.027830673
161	0x3e00b01b	0.12567179
162	0xbda0eea0	-0.07858014
163	0xbdc92eba	-0.098233655
164	0xbdaa7fae	-0.08325134
165	0x3daf5ffc	0.085632294
166	0xbe3849ce	-0.17996904
167	0x3d113527	0.03545108
168	0xbe31602c	-0.17321843
169	0xbe8987ae	-0.26861328
170	0xbe1ca2cd	-0.15296479
171	0x3e30e9da	0.17276707
172	0x3ebba24b	0.36647257
173	0x3d83b5ff	0.064311974
174	0x3e0965ca	0.13417736
175	0x3e2bc384	0.16773802
176	0x3e0c71a0	0.1371522
177	0x3d4bea46	0.049783967
178	0x3d43e807	0.0478287
179	0xbd1163d1	-0.035495583
180	0x3dea1544	0.11429837
181	0xbda7beca	-0.08190687
182	0xbdbbc9d9	-0.09169359
183	0x3e824436	0.25442666
184	0x3d557f3e	0.0521233
185	0x3e111474	0.14167958
186	0xbe597153	-0.21234636
187	0x3e258af1	0.16166283
188	0x3c566e4b	0.013087819
189	0x3d295a54	0.04134591
190	0x3dda28bc	0.10652301
191	0xbe1039fa	-0.14084616
192	0xbcbe9b3f	-0.023267386
193	0xbe1634a6	-0.14668521
194	0xbdf934c2	-0.12168266
195	0xbd481246	-0.048845552
196	0xbdd86236	-0.10565607
197	0x3dd749b3	0.10512104
198	0x3e802308	0.25026727
199	0x3d651297	0.05592593
200	0xbd155a15	-0.036462862
201	0xbcdfa79c	-0.027301602
202	0xbe440890	-0.19143891
203	0x3d6a941a	0.057270147
204	0xbdb02298	-0.08600348
205	0x3d8d7603	0.069072746
206	0x3d7ab03d	0.06120323
207	0x3b8a4cc5	0.0042205774
208	0x3db315eb	0.08744415
209	0x3c28f478	0.010312192
210	0x3dcb0037	0.0991215
211	0x3d59f8be	0.053215735
212	0xbd8cd5d7	-0.06876724
213	0xbda73015	-0.08163468
214	0xbdfed0c3	-0.12442162
215	0xbe0dbfd9	-0.13842715
216	0x3e55288e	0.20816252
217	0xbd08edc2	-0.03342987
218	0xbe800810	-0.2500615
219	0x3d85880b	0.06520089
220	0xbcb3ad3c	-0.02193319
221	0x3c85c679	0.01632999
222	0x3e37d0db	0.17950766
223	0xbde9019a	-0.113772586
224	0x3e05c4fc	0.13063425
225	0x3e3daf5a	0.18523923
226	0xbe15344f	-0.14570735
227	0x3c380f1e	0.011234073
228	0xbd86dfbf	-0.06585645
229	0x3c78bfa9	0.015182414
230	0x3e03e274	0.12879354
231	0x3dbfe7e6	0.09370403
232	0xbd8a1714	-0.06742683
233	0xbc2c1420	-0.010502845
234	0x3d39f6a8	0.045401245
235	0xbc94e9e1	-0.018177928
236	0xbe015cdc	-0.1263308
237	0x3c27d38d	0.010243309
238	0xbd381c07	-0.044948604
239	0xbe5af7c4	-0.21383578
240	0x3da87aa8	0.0822652
241	0x3dc9fafe	0.09862326
242	0x3dbab918	0.09117335
243	0xbc23ee57	-0.010005555
244	0xbe11d0f5	-0.14239867
245	0x3e346452	0.17616394
246	0xbd7eab27	-0.062174942
247	0x3dda4c52	0.10659088
248	0x3d866d86	0.06563859
249	0x3e27e47c	0.16395754
250	0xbd0f3974	-0.0349669
251	0xbdaf5e09	-0.08562858
252	0x3ea3112d	0.31849042
253	0xbddf4eba	-0.10903688
254	0x3cbbd438	0.022928342
255	0xbdc0b1a1	-0.0940888

network.2.bias f4 [60]
0	0xbdfced2f	-0.12349927
1	0xbd1d45f1	-0.03839678
2	0x3d8f367a	0.069928125
3	0xbd77beea	-0.060484804
4	0xbd3c5aa2	-0.04598487
5	0x3e0161ff	0.12635039
6	0x3d6c88ed	0.05774777
7	0x3da72f18	0.08163279
8	0x3e72972b	0.23690479
9	0x3d26707d	0.04063462
10	0x3cadb5af	0.021204798
11	0xbd1324ea	-0.035923876
12	0xbd1f2418	-0.03885278
13	0x3d91f06d	0.07125936
14	0xbe02d49f	-0.12776421
15	0xbda4b6a2	-0.08042647
16	0x3e2cb00e	0.16864035
17	0xbdc9ecc6	-0.09859614
18	0xbc3ec9f0	-0.011644825
19	0x3d9e095f	0.07716631
20	0x3d3e660d	0.046484042
21	0x3df1ba75	0.11803142
22	0x3d88545b	0.066567145
23	0x3e6febb2	0.23429754
24	0xbdb5e886	-0.08882241
25	0xbd3ed89d	-0.046593297
26	0x3de74d3b	0.112940274
27	0x3da7cf77	0.08193868
28	0xbd85d8f4	-0.06535521
29	0xbdae44b5	-0.085091986
30	0xbcdf0ad8	-0.02722685
31	0xbe155a35	-0.14585193
32	0x3c776582	0.015099885
33	0xbdda9861	-0.10673595
34	0xbdac9f3f	-0.08428811
35	0xbda890b7	-0.08230727
36	0x3d4cc040	0.04998803
37	0x3cdd043e	0.026979562
38	0x3cc059ce	0.023480322
39	0x3d92cbbe	0.07167767
40	0x3db22287	0.08697992
41	0xbd02d4fd	-0.031941403
42	0xbd61ecfa	-0.05515764
43	0x3dab0765	0.0835102
44	0x3de4f606	0.11179738
45	0x3d597477	0.053089585
46	0x3d725aaf	0.059168514
47	0xbdcf4e0e	-0.101223096
48	0xbd05f9ab	-0.032708805
49	0x3cbf3669	0.023341374
50	0x3d829e16	0.06377809
51	0xbe061435	-0.13093646
52	0x3cfa092d	0.030521953
53	0xbd26db85	-0.040736694
54	0xbcd11b5f	-0.025525747
55	0x3e2323b4	0.15931588
56	0x3dbc3565	0.09189872
57	0xbce21492	-0.0275977
58	0x3d948c0b	0.072532736
59	0x3c6aa677	0.014321915

network.4.weight f4 [10, 60]
0	0x3ec10540	0.37699318
1	0xbdde1adc	-0.10844967
2	0xbdc9b721	-0.09849382
3	0x3de9f986	0.11424546
4	0xbddc5886	-0.10759072
5	0xbe1d6958	-0.15372217
6	0xbe1a6ed1	-0.15081336
7	0xbd0ee6c8	-0.03488806
8	0xbd0f60e5	-0.035004515
9	0x3ef3dbdc	0.47628677
10	0xbd89436b	-0.06702312
11	0x3df57043	0.11984303
12	0xbe31a2dd	-0.17347284
13	0xbdc9d77d	-0.09855554
14	0xbb6a0764	-0.0035709972
15	0x3cb4ddc8	0.02207841
16	0xbe02f601	-0.12789156
17	0x3dc631d6	0.09677474
18	0xbdf86742	-0.1212907
19	0x3b6bb58d	0.0035966367
20	0x3e725f83	0.23669247
21	0x3e5b9f67	0.21447526
22	0x3db51848	0.08842522
23	0xbe7b7d13	-0.24559431
24	0xbe665637	-0.22493826
25	0xbc4a07f5	-0.012330999
26	0x3e110edf	0.14165829
27	0x3daec459	0.08533544
28	0x3dafba1e	0.08580421
29	0xbe018d50	-0.12651563
30	0xbe946cc9	-0.28989246
31	0xbe079e82	-0.1324406
32	0xbcfab21f	-0.030602513
33	0xbeffa54d	-0.49930802
34	0xbe819f34	-0.25316775
35	0x3ef6c634	0.48198092
36	0x3e5e2ff5	0.21697982
37	0xbd45ae46	-0.048261903
38	0xbe226201	-0.15857698
39	0xbd112d9d	-0.03544389
40	0xbe8aaeb2	-0.27086407
41	0xbdffaa64	-0.12483671
42	0x3dc8af80	0.09799099
43	0xbd2eabc3	-0.042644273
44	0x3db5d366	0.08878212
45	0xbdf635e7	-0.12022
46	0xbe37ebce	-0.17961046
47	0xbe13f18e	-0.14447615
48	0x3e8917d0	0.2677598
49	0xbdcd30e2	-0.10019089
50	0x3d26be67	0.040708926
51	0xbbc78bf2	-0.006089681
52	0xbe853113	-0.26014003
53	0xb9ade58f	-0.00033168166
54	0xbe91deda	-0.28490335
55	0xbe2d5422	-0.16926625
56	0x3e0cc3f8	0.13746631
57	0xbe1fef99	-0.15618743
58	0x3e373032	0.17889479
59	0xbe6ab507	-0.22920619
60	0xbdd22581	-0.102610596
61	0xbd701683	-0.05861522
62	0x3e9f31ef	0.31092784
63	0xbe12d188	-0.14337742
64	0x3e91c498	0.28470302
65	0xbf08efab	-0.53490704
66	0x3eae06d0	0.33989573
67	0x3d56b4ab	0.052418392
68	0xbe5b9567	-0.21443711
69	0xbdc61ce8	-0.09673482
70	0xbde7a0a2	-0.11309935
71	0xbd4225cb	-0.047399323
72	0xbe587744	-0.21139246
73	0x3e084223	0.13306479
74	0xbe37510b	-0.17902009
75	0xbd01913a	-0.03163264
76	0xbd23abc2	-0.039958723
77	0x3bd900d6	0.006622414
78	0x3defa312	0.11701025
79	0xbcf58455	-0.029970327
80	0xbe648d17	-0.22319447
81	0xbe696c1d	-0.22795148
82	0xbe5156ee	-0.20443317
83	0x3d390a28	0.0451757
84	0xbdc958b0	-0.09831369
85	0xbe02e92a	-0.12784258
86	0xbe05c253	-0.1306241
87	0xbc9c3bab	-0.01907142
88	0x3af4d033	0.0018677771
89	0xbdd1b981	-0.1024046
90	0x3e7b38b4	0.2453335
91	0xbc1e7196	-0.009670636
92	0xbeae1873	-0.34003028
93	0x3e9473d2	0.28994614
94	0x3e71ea6c	0.23624581
95	0xbe8e0356	-0.2773692
96	0xbdf8f12f	-0.12155377
97	0x3ca09985	0.019604454
98	0x3eca0d9b	0.39463505
99	0x3ded5710	0.115888715
100	0x3dcf76ca	0.10130079
101	0x3e7fdfc2	0.249877
102	0x3c594722	0.013261588
103	0xbec10249	-0.37697056
104	0xbcebd112	-0.028786216
105	0xbd92ad43	-0.07161953
106	0xbde215b4	-0.11039296
107	0x3e77cf8e	0.2420027
108	0xbe44a5a0	-0.19203806
109	0xbe9e4b4e	-0.30916828
110	0xbde1c365	-0.11023597
111	0x3e8120b4	0.25220263
112	0xbe2a33fa	-0.1662139
113	0x3c8783c0	0.016542315
114	0x3ecb3270	0.39686918
115	0x3e20ee05	0.15715797
116	0xbe867bde	-0.26266378
117	0xbd0add9b	-0.033902746
118	0x3dd5b469	0.10434801
119	0xbd98ee6c	-0.0746735
120	0xbdcdf119	-0.10055751
121	0x3d74cb11	0.05976397
122	0x3e76226a	0.24036565
123	0xbdee8414	-0.11646286
124	0x3e6617e0	0.22470045
125	0xbceab730	-0.028651804
126	0xbc03fe6a	-0.0080562625
127	0x3dcb8f01	0.09939385
128	0xbc4c1c43	-0.01245791
129	0xbdf7862c	-0.12086138
130	0xbde57737	-0.11204379
131	0x3e6afce9	0.2294804
132	0x3b1c07bd	0.0023808323
133	0xbd2fa624	-0.042883053
134	0xbbf5e9cd	-0.007504678
135	0x3e525848	0.20541489
136	0xbe9a42f7	-0.30129215
137	0xbe51ab25	-0.20475443
138	0xbac677e5	-0.0015141933
139	0x3e92982c	0.28631723
140	0xbef305ad	-0.47465268
141	0x3cbdbe8b	0.023162147
142	0x3e8cbaba	0.2748621
143	0xbd7de65d	-0.06198727
144	0xbdb5021e	-0.088382944
145	0xbda321f8	-0.079654634
146	0xbc144a4b	-0.009050916
147	0x3e074890	0.13211274
148	0xbe19af0e	-0.15008184
149	0x3d2f55d4	0.04280646
150	0xbe93a995	-0.28840318
151	0x3daee26c	0.0853928
152	0x3d24d5c4	0.040242925
153	0x3eb730bf	0.35779378
154	0xbdd77224	-0.105198175
155	0xbe32a677	-0.17446314
156	0x3e0a13b9	0.13484086
157	0xbdcd2ed6	-0.10018699
158	0xbe640dc4	-0.22270876
159	0xbe2775f9	-0.16353597
160	0x3e2f0fe6	0.17095909
161	0x3e53cf44	0.20684534
162	0xbd0636f6	-0.03276726
163	0xbd294489	-0.041325126
164	0xbe5881f1	-0.21143319
165	0x3e08503a	0.13311854
166	0xbe5f9ca6	-0.218371
167	0xbd2166b5	-0.03940459
168	0x3ebadd46	0.36496943
169	0xbd43bdae	-0.047788315
170	0x3ebe196a	0.37128764
171	0x3d9b2883	0.07576086
172	0x3e76fe64	0.2412048
173	0x3e76fb6b	0.24119346
174	0x3b9d8a84	0.004807772
175	0xbeb4e28a	-0.35329086
176	0xbe0e337b	-0.13886826
177	0x3ea14714	0.3149954
178	0xbdfe797b	-0.12425514
179	0x3b2839f4	0.0025669308
180	0x3d88d1f1	0.06680668
181	0xbdd461d3	-0.10370221
182	0x3e64e053	0.22351198
183	0x3ea2108c	0.3165325
184	0x3df39c20	0.11895013
185	0x3c5b0394	0.013367552
186	0xbee2fd2b	-0.44333777
187	0xbca5ab90	-0.020223409
188	0x3ea94b0b	0.33065066
189	0x3d9f53c5	0.0777965
190	0x3efd129f	0.4942827
191	0x3d56d6cf	0.05245095
192	0x3c5df012	0.013546007
193	0xbd46a097	-0.048492994
194	0xbe61c5c5	-0.220481
195	0xbe75d395	-0.24006493
196	0x3e2434a3	0.16035704
197	0x3e4aa675	0.19790061
198	0x3e63eb5f	0.22257756
199	0x3e4ae183	0.19812588
200	0xbe128983	-0.14310269
201	0xbed86de9	-0.42271355
202	0x3e0d88a7	0.1382166
203	0xbdff320f	-0.1246072
204	0x3dad7832	0.08470191
205	0xbdd95e07	-0.106136374
206	0x3e0a8258	0.13526285
207	0xbc034e7c	-0.008014318
208	0xbd02dc70	-0.031948507
209	0xbe187813	-0.14889555
210	0xbe9c53a8	-0.30532575
211	0xbd15df66	-0.036590002
212	0xbbbd85f4	-0.0057837907
213	0x3e1cf4ee	0.15327808
214	0xbe49dc02	-0.19712833
215	0xbe22d073	-0.1589983
216	0x3e018f83	0.12652402
217	0xbe45c402	-0.19313052
218	0xbd358715	-0.044318277
219	0x3dcf48b5	0.1012129
220	0x3e7e53f1	0.24836709
221	0x3e404526	0.18776378
222	0xbda8df4c	-0.082457155
223	0xbe2f5b2c	-0.17124623
224	0x3e7e98f4	0.24863034
225	0x3e607b2a	0.21921983
226	0xbe2d5ad1	-0.16929175
227	0x3eb94c00	0.36190796
228	0xbe97bc1b	-0.296357
229	0x3e98bc39	0.29831102
230	0x3e777a4d	0.24167748
231	0xbd11f144	-0.03563048
232	0x3e239192	0.159735
233	0xbd246178	-0.040132016
234	0xbe88455b	-0.26615414
235	0x3de20e1f	0.1103785
236	0xbe36cc58	-0.17851388
237	0xbcccb852	-0.024990235
238	0xbe38e550	-0.18056226
239	0x3c3200bf	0.010864436
240	0x3dec6b58	0.11543912
241	0x3dc1e7a2	0.094680086
242	0xbd8b548d	-0.06803236
243	0xbeb87fac	-0.36034906
244	0xbe4af7a5	-0.19821031
245	0x3e39a7a1	0.18130352
246	0xbd142686	-0.03616955
247	0xbdd20656	-0.10255115
248	0xbeb3e6f1	-0.35137132
249	0xbf302197	-0.68801254
250	0x3d6d64fa	0.057957627
251	0xbe84a791	-0.25909093
252	0x3e451e59	0.19249858
253	0xbe03df48	-0.12878144
254	0x3e45f609	0.19332136
255	0xbe1fd71c	-0.15609401

network.4.bias f4 [10]
0	0xbcf71547	-0.030161513
1	0x3d6392a5	0.055559773
2	0xbdbb82d4	-0.09155813
3	0xbcda9df3	-0.026686644
4	0xbdb296c7	-0.08720165
5	0xbe38393e	-0.17990586
6	0xbe3d3a69	-0.18479313
7	0xbe68ae97	-0.2272285
8	0x3e901952	0.28144318
9	0xbb1cbeaa	-0.0023917356
