models/mnist_train_mlp.pth (torch, 173719 bytes, 6 tensors)

network.0.weight f4 [50, 784]
0	0x3ce4bb5d	0.027921373
1	0x3d0ed144	0.03486754
2	0xbc2a581b	-0.010396983
3	0xbc127c53	-0.008940774
4	0xbca30c37	-0.019903285
5	0x3c92d2a2	0.017922703
6	0xbd04aeb1	-0.03239316
7	0x3b830c04	0.003999235
8	0x3c185fe7	0.009300209
9	0x3d09225b	0.03348003
10	0x3bfcd645	0.0077159726
11	0xbcdaf12e	-0.026726332
12	0xbd073e83	-0.0330186
13	0xbb407828	-0.0029368494
14	0xbd05d2ef	-0.032671865
15	0x3b7d295c	0.0038629388
16	0xbb984476	-0.004646833
17	0x3b96efe3	0.0046062334
18	0xbd0072df	-0.03135955
19	0xbd0d8422	-0.03454984
20	0x3bacfd94	0.0052792523
21	0xbc13883b	-0.009004648
22	0xbd04ec79	-0.03245208
23	0x3cefdd8d	0.029280448
24	0xbcff2edf	-0.03115028
25	0x3bb6ad89	0.005574886
26	0x3ca16785	0.019702682
27	0xbc14e953	-0.009088832
28	0x3c94edd6	0.018179815
29	0xbcd0b4cf	-0.025476841
30	0xbc34d029	-0.011035957
31	0xb9d921d0	-0.00041414658
32	0x3a8682df	0.0010262391
33	0x3b2dbbdc	0.0026509678
34	0x3d05f194	0.03270109
35	0xbc3b4ee6	-0.011432385
36	0xbc845874	-0.016155459
37	0xbcb81792	-0.022472177
38	0x3cecf58d	0.028925681
39	0xbc902f1e	-0.017600592
40	0x3bafdb78	0.005366739
41	0xbca21ba3	-0.019788569
42	0xbccf76ce	-0.025325205
43	0x3b89c105	0.004203918
44	0xbcf04ee2	-0.02933449
45	0xbb8322de	-0.004001959
46	0xbc8dcf1d	-0.017310673
47	0xbcec9190	-0.028878003
48	0xbcc40f75	-0.023933152
49	0xbcfa90e0	-0.03058666
50	0xbc831e18	-0.01600556
51	0xbd0a9275	-0.03383108
52	0xbc9a2024	-0.018814154
53	0xbcf40a6f	-0.029790131
54	0x3cff7ffd	0.03118896
55	0x3ca88b26	0.020574164
56	0xbc858b81	-0.016301872
57	0x3c81ed1d	0.015860135
58	0xbcce3d6d	-0.025175774
59	0xbc444054	-0.011978228
60	0x3ccb8dc6	0.024847876
61	0x3c1a591b	0.009420658
62	0xbcd66d5c	-0.026175193
63	0x39950f3b	0.00028430842
64	0xbb3c3f24	-0.0028724158
65	0x3d15f6bc	0.036612257
66	0x3c7006e6	0.014650082
67	0x3d1f2921	0.038857583
68	0x3c401920	0.01172474
69	0x3d29d564	0.04146327
70	0x3d7887ca	0.060676374
71	0x3d0d22c1	0.034456972
72	0x3d2a72e3	0.04161347
73	0x3d4a693b	0.04941676
74	0xbc126b7b	-0.008936758
75	0xbc8474c1	-0.016168954
76	0x3ba6f7b5	0.005095447
77	0xbcc36dbf	-0.023856042
78	0xbc515c21	-0.012778313
79	0x3cbd425f	0.023102937
80	0xbc7e02fd	-0.015503642
81	0x3c363cd4	0.011122901
82	0xbd014beb	-0.03156654
83	0x3b0d1680	0.0021528304
84	0x3cdd4561	0.027010622
85	0x3ce723e1	0.02821535
86	0x3cf0601f	0.02934271
87	0x3ce9df40	0.028548837
88	0x3cb5d083	0.022194153
89	0xbacb1b7e	-0.0015495864
90	0xbc298b5e	-0.010348169
91	0xba8ee9f4	-0.0010903464
92	0x3d1a798a	0.037713565
93	0x3a025a5e	0.0004972572
94	0x3d8a1d47	0.067438655
95	0x3c6a5ac8	0.0143038705
96	0x3d4da338	0.050204486
97	0x3c5f5d44	0.013633076
98	0xbcccd611	-0.025004419
99	0x3d0eb99e	0.034844987
100	0xbc774a8d	-0.015093458
101	0x3c6e12ca	0.014530847
102	0x3859ddff	5.194358e-05
103	0x3d34219a	0.043977357
104	0x3c52446c	0.012833696
105	0x3bec93b7	0.0072197574
106	0x3d1acdef	0.03779405
107	0x3d236187	0.03988793
108	0x3c4ac8a1	0.012376935
109	0x3aa87805	0.0012853151
110	0x3d14ebba	0.03635762
111	0x3c1339a1	0.008985908
112	0xbc82b8f2	-0.01595733
113	0x3d0a495b	0.033761363
114	0xbb9cd083	-0.0047855987
115	0xbce38d32	-0.027777288
116	0xbc610664	-0.013734434
117	0x3ced0de3	0.028937286
118	0xbce8db9a	-0.028425027
119	0x3c980a8a	0.018559713
120	0xbca49f83	-0.020095592
121	0xba53dbbd	-0.0008081755
122	0xbad0f4d9	-0.0015942111
123	0x3c83c295	0.016083995
124	0x3d15d815	0.036583025
125	0xbc6d753e	-0.014493285
126	0x3cfe417c	0.031037085
127	0xbd8adafb	-0.067800485
128	0xbce70cc3	-0.028204327
129	0xbc71fa29	-0.0147691155
130	0xbc2fbb17	-0.010725758
131	0x3c1f5793	0.009725469
132	0x3c0f098c	0.0087303035
133	0x3b18d645	0.0023321074
134	0x3c31150c	0.010808241
135	0x3d2f095f	0.042733546
136	0xbb8b6359	-0.0042537865
137	0x3ca021a5	0.019547293
138	0xbcac9c72	-0.021070693
139	0xb9d92ce0	-0.000414229
140	0xbcc0b3eb	-0.023523292
141	0xbcc79e35	-0.024367431
142	0x3c8b97f9	0.01704024
143	0x3cc022b9	0.023454057
144	0xbb7bf71e	-0.0038446854
145	0x3c3e99d6	0.011633357
146	0xbc89f65d	-0.016841108
147	0xbca34ad4	-0.019933142
148	0xbcd25e64	-0.025679775
149	0xbcb59adb	-0.022168567
150	0xbc881c3c	-0.016615026
151	0xbba4fe67	-0.00503521
152	0x3cef3c9e	0.02920371
153	0xbd2564ee	-0.040379457
154	0x3c26772f	0.0101602515
155	0xbbb0da01	-0.005397082
156	0xbd219868	-0.039451987
157	0xbcffffb0	-0.031249851
158	0xbc5ae45f	-0.013360112
159	0x3d329ed6	0.04360851
160	0x3ceea97c	0.02913355
161	0x3cae9f62	0.021316234
162	0x3c8df6c8	0.017329589
163	0x3cbc70bb	0.023002973
164	0x3c88769a	0.016658116
165	0x3c885a03	0.016644483
166	0xb894bde5	-7.0925606e-05
167	0xbc3cb3ad	-0.011517447
168	0x3cd0eb8f	0.025502948
169	0xbbf603c1	-0.0075077717
170	0x3c6df0a3	0.014522704
171	0xbc88591f	-0.016644059
172	0xbc35b093	-0.011089462
173	0xbd90eead	-0.07076774
174	0xbd8df985	-0.06932358
175	0xbd835193	-0.064120434
176	0xbc9a26e5	-0.018817374
177	0xbd162367	-0.036654856
178	0xbcb62804	-0.022235878
179	0xbd147b4e	-0.036250405
180	0xbc37f59b	-0.0112279905
181	0xbd35a8e2	-0.044350512
182	0xbd5f25e0	-0.05447948
183	0xbd0046f4	-0.031317666
184	0xbd59d88c	-0.05318503
185	0xbd6c15bb	-0.05763791
186	0xbc5a1213	-0.013309973
187	0xbce46e67	-0.027884675
188	0xbd4e7a4f	-0.05040961
189	0xbd960824	-0.073257715
190	0xbd1516c8	-0.03639868
191	0x3d02f110	0.031968176
192	0xbb304b17	-0.0026900226
193	0x39f02beb	0.0004580909
194	0x3ba0941c	0.0049004685
195	0xbca10b30	-0.019658655
196	0xbc083090	-0.008312359
197	0xbc3b7d8d	-0.011443508
198	0xbd06c901	-0.032906536
199	0xbccc182f	-0.024913875
200	0xbc81a8b1	-0.015827509
201	0xbd6dcfa3	-0.058059346
202	0xbda0724f	-0.07834303
203	0xbc8119d7	-0.015759392
204	0xbd3343ee	-0.043765955
205	0xbd2cc92b	-0.042184036
206	0xbc63884b	-0.013887475
207	0xbd8d26c0	-0.068921566
208	0xbd82e8cc	-0.06392059
209	0xbd4eaba4	-0.050456658
210	0xbcc0aaf7	-0.023519022
211	0x3b643ec3	0.0034827448
212	0xbd5090f8	-0.050919503
213	0xbd787cda	-0.060665943
214	0xbd747ffa	-0.05969236
215	0xbdacd635	-0.08439294
216	0xbd6ff088	-0.058578998
217	0xbd91b743	-0.071150325
218	0xbd526a36	-0.051370822
219	0xbd180f91	-0.03712422
220	0x3beca583	0.007221879
221	0x3cbde3e2	0.023179952
222	0x3c83a208	0.016068473
223	0x3d0533c0	0.032520056
224	0x3d06d24c	0.0329154
225	0xbd0262d3	-0.031832527
226	0xbbb9ed07	-0.005674008
227	0xbd1bf479	-0.038074944
228	0xbc776162	-0.015098901
229	0xbc7a598f	-0.0152801415
230	0xbcbef0e1	-0.02330822
231	0xbcad0d0e	-0.021124389
232	0x3c588194	0.013214488
233	0x3b5a6330	0.003332328
234	0xbd1165bb	-0.03549741
235	0xbd5414f0	-0.05177778
236	0xbc28807e	-0.010284541
237	0xbc98f1c9	-0.01866998
238	0xbb67d627	-0.0035375447
239	0xbd6fa1de	-0.058503978
240	0xbd92ef1f	-0.07174515
241	0xbdddfcfb	-0.10839268
242	0xbdbe90a7	-0.09304934
243	0xbd735a27	-0.059412148
244	0xbdb244e1	-0.08704544
245	0xbd3a4f9f	-0.04548609
246	0xbd2ee160	-0.042695403
247	0x3bfac1ca	0.007652496
248	0x3d1770bb	0.036972743
249	0x3be3754e	0.006941474
250	0x3c18b222	0.009319814
251	0xbc44df48	-0.012016125
252	0x3bc3f135	0.005979682
253	0xbce21781	-0.027599098
254	0xbc97a41c	-0.01851087
255	0xbb63f744	-0.0034784833

network.0.bias f4 [50]
0	0x3d0ecebf	0.034865137
1	0x3c2bcc41	0.01048571
2	0x3c840ef3	0.01612041
3	0xbd05865e	-0.032598846
4	0x3c9cc570	0.019137114
5	0xbca4f046	-0.020134103
6	0x3c8ab5ef	0.016932456
7	0xbcd3e104	-0.025864132
8	0x3c5531e2	0.013012381
9	0x388479ce	6.3169384e-05
10	0x3d0ab003	0.033859264
11	0xbb65b8f2	-0.0035052863
12	0x3d08637b	0.033297997
13	0x3c9a919f	0.018868266
14	0x3cac1d46	0.021010052
15	0xbc48b0e9	-0.01224921
16	0xbcde14d2	-0.027109537
17	0x3b99e00d	0.0046958984
18	0x3c6dfe52	0.014525967
19	0xbcd0ca7c	-0.025487177
20	0xbc9c7adb	-0.01910155
21	0x3d17e8aa	0.03708712
22	0x3ca2d3b4	0.019876339
23	0xbc13a49e	-0.009011416
24	0x3c7b6b73	0.015345442
25	0x3c581be1	0.013190241
26	0x3bbdd397	0.0057930457
27	0x3cbb2322	0.022843901
28	0xbd29a617	-0.04141816
29	0x3c3e3e4d	0.011611533
30	0xbc92711b	-0.017876199
31	0xbb88a73a	-0.0041703256
32	0xbcad661c	-0.021166854
33	0x3b6300ac	0.0034637852
34	0xbd0febb0	-0.03513688
35	0x3bdb7f58	0.00669853
36	0x38885b43	6.501984e-05
37	0x3cff1a35	0.031140426
38	0x3c9f5f30	0.019454569
39	0xbbb5935b	-0.005541248
40	0xbcad6893	-0.021168029
41	0xbd17e3dc	-0.037082538
42	0xbc01cb80	-0.007922053
43	0x3bfe6264	0.007763194
44	0xbc1e5e76	-0.009666076
45	0xbbf72c9f	-0.007543161
46	0xba4e69ae	-0.0007874024
47	0xbc2257a9	-0.009908595
48	0x3cd40e8f	0.025885848
49	0x3c110ee3	0.008853647

network.2.weight f4 [60, 50]
0	0x3da71315	0.081579365
1	0xbdb6997a	-0.08915992
2	0x3dc00a4f	0.09376966
3	0xbd7d0aef	-0.061778005
4	0xbd806c5e	-0.062706694
5	0x3dd11185	0.1020842
6	0xbd7153e5	-0.0589179
7	0xbdcd2375	-0.100165285
8	0x3d8de83e	0.06929062
9	0xbd931068	-0.071808636
10	0x3e0c1cd3	0.1368287
11	0xbda67582	-0.081278816
12	0x3d6fc893	0.05854089
13	0x3d6f8318	0.05847463
14	0xbd81bf49	-0.06335313
15	0xbc8f4b2f	-0.017491905
16	0xbea12ed0	-0.31481028
17	0xba246372	-0.0006270922
18	0x3d59ac5c	0.05314289
19	0x3cf7e2f3	0.030259585
20	0x3d6c21c5	0.057649393
21	0x3e5ce42c	0.21571416
22	0xbddcf621	-0.10789133
23	0xbe1a6f7d	-0.15081592
24	0x3e01275b	0.12612669
25	0x3e39ca3e	0.18143556
26	0xbe88f19e	-0.2674684
27	0xbd32d1eb	-0.043657225
28	0x3d6e784a	0.058220185
29	0x3d8a99d1	0.067676194
30	0xbc2f2ae0	-0.010691375
31	0xbe258536	-0.16164097
32	0x3e85fd0d	0.26169625
33	0x3db6062f	0.08887898
34	0xbd4c2a31	-0.049844924
35	0x3e8dc6c6	0.27690715
36	0x3e08b92b	0.13351886
37	0x3cf3da10	0.029767066
38	0x3c1c4ed9	0.009540283
39	0xbca8e292	-0.02061585
40	0x3cd06866	0.025440406
41	0x3d909d0c	0.07061204
42	0xbe82356d	-0.25431386
43	0xbe9af50f	-0.3026509
44	0xbcff4764	-0.031161971
45	0xbe27888e	-0.16360685
46	0xbe13bdf7	-0.14427935
47	0xbe30d9c8	-0.17270577
48	0x3e3012a3	0.1719461
49	0x3ca5e889	0.020252483
50	0x3e3eb030	0.18621898
51	0xbe4c7b81	-0.19968988
52	0x3c2a06d8	0.010377608
53	0x3dd9aaea	0.106283024
54	0xbd8f5e23	-0.07000377
55	0xbd65dfd5	-0.056121666
56	0xbe1454f6	-0.14485535
57	0xbe466fbd	-0.19378562
58	0xbd9e5e93	-0.07732882
59	0x3c11f419	0.008908295
60	0x3d9462ea	0.07245429
61	0xbc8d5f15	-0.017257253
62	0xbe46ec98	-0.19426191
63	0xbdc9671f	-0.09834122
64	0xbde5b138	-0.112154424
65	0x3e04d673	0.12972431
66	0xbe1cb0e1	-0.15301849
67	0x3d6966f5	0.056982953
68	0x3c8a6303	0.016892916
69	0xbe0ba320	-0.13636446
70	0xbcf3d705	-0.029765615
71	0x3dc73928	0.097276986
72	0x3dedff3f	0.1162095
73	0xbd8c1a89	-0.06840999
74	0x3d44c2a6	0.048037194
75	0x3de3a6b6	0.11115782
76	0xbe99a93e	-0.30011934
77	0x3d4a4d35	0.049390037
78	0x3eac7e16	0.33689946
79	0x3e28d932	0.16489103
80	0x3d889852	0.06669678
81	0xbe1a251c	-0.15053219
82	0x3e38e9b4	0.180579
83	0x3ed36327	0.41286585
84	0x3e038de8	0.12847102
85	0x3e2176dd	0.15767999
86	0x3daefedc	0.08544704
87	0xbddaa5f0	-0.10676181
88	0x3e24a994	0.16080314
89	0x3a181490	0.0005801404
90	0xbb715001	-0.0036821368
91	0x3dbc2284	0.09186271
92	0xbdf051d8	-0.117343605
93	0xbddd2e5d	-0.10799859
94	0x3d28145b	0.041035037
95	0xbdcd7435	-0.1003193
96	0x3e23434a	0.15943637
97	0xbd894c3a	-0.06703992
98	0x3d0c6cc3	0.03428341
99	0x3d9db1e1	0.07699943
100	0x3e54c099	0.20776595
101	0xbd989bce	-0.074515924
102	0x3d0215ae	0.031758957
103	0xbd2012da	-0.03908048
104	0xbdfba007	-0.12286382
105	0x3c722f1b	0.014781739
106	0x3da85b2b	0.08220514
107	0xbc0ccb3f	-0.0085933795
108	0x3dc84698	0.0977909
109	0xbd29a115	-0.041413385
110	0xbdef1b37	-0.11675113
111	0xbd144498	-0.03619823
112	0xbe233966	-0.15939865
113	0x3c96846b	0.018373689
114	0x3ca9e898	0.020740792
115	0x3dca7f26	0.09887533
116	0x3e0bb132	0.13641813
117	0xbd41c90e	-0.04731088
118	0x3d70947c	0.058735356
119	0x3e35eb86	0.17765626
120	0x3e12a7d4	0.14321834
121	0xbd99b7a4	-0.0750573
122	0x3d9357ea	0.07194503
123	0x3d9bc037	0.076050214
124	0x3e0c2f4b	0.13689916
125	0xbdc1d308	-0.09464079
126	0xbd9ea75e	-0.077467665
127	0xbe121e55	-0.14269383
128	0xbe0cebd9	-0.13761844
129	0x3cc86b8c	0.024465345
130	0xbe2dabd6	-0.16960081
131	0x3db78a64	0.08961943
132	0xbe08823d	-0.13330932
133	0xbdb34821	-0.08753992
134	0xbe08e55a	-0.1336874
135	0xbdc53213	-0.096286915
136	0x3dc83574	0.097758204
137	0x3e0b74bf	0.13618754
138	0x38cceef2	9.771985e-05
139	0xbdb6ba8c	-0.089223
140	0x3d69e0cc	0.05709915
141	0xbd563612	-0.05229766
142	0xbdafc8b1	-0.08583201
143	0x3db48f58	0.08816403
144	0xbda3298d	-0.079669096
145	0x3de6df74	0.11273089
146	0x3db9a4d1	0.09064639
147	0x3d7a70ba	0.06114266
148	0xbdb5a6f4	-0.088697344
149	0xbdc8547d	-0.0978174
150	0x3da3b48f	0.07993423
151	0xbe4a309b	-0.19745104
152	0x3e8d820c	0.2763828
153	0xbdb9ef50	-0.09078848
154	0x3d7ef340	0.0622437
155	0xbe86afd1	-0.26306012
156	0x3d73894f	0.05945712
157	0xbdac707f	-0.084198944
158	0x3dc13ac9	0.094350405
159	0xbde84ffd	-0.113433816
160	0xbcaf72cd	-0.021417046
161	0xbddef035	-0.108856596
162	0xbe164f2b	-0.14678638
163	0x3dc740e6	0.09729175
164	0xbd6c90ff	-0.057755467
165	0xbe1f0d29	-0.15532364
166	0xbd70c9a8	-0.058786064
167	0xbe0d74b6	-0.13814053
168	0x3d852ea7	0.06503039
169	0x3c128db1	0.008944915
170	0xbe8d1352	-0.27553803
171	0xbe13b1aa	-0.14423242
172	0x3c58ef93	0.013240713
173	0x3e190b84	0.14945799
174	0xbe409919	-0.18808402
175	0xbdc50db1	-0.09621752
176	0xbe1caa94	-0.15299445
177	0x3de8e53d	0.11371849
178	0xbe08f11d	-0.13373227
179	0xbb4d716d	-0.0031348125
180	0xbe1868fe	-0.14883801
181	0x3cc2a2b8	0.023759231
182	0xbe2542a5	-0.16138704
183	0x3ecfc3d4	0.40579093
184	0xbea67f9c	-0.32519233
185	0x3dffc1d9	0.124881454
186	0x3daee2c1	0.085393436
187	0x3d81f32f	0.06345212
188	0xbd227fd8	-0.039672703
189	0x3d967074	0.073456675
190	0xbdb4c5dd	-0.08826802
191	0xbe7d6ff6	-0.24749741
192	0x3dfc5bfb	0.123222314
193	0xbda3a955	-0.07991282
194	0x3d96cd7d	0.073634125
195	0xbe5db62a	-0.21651521
196	0xbea6448c	-0.32474172
197	0x3d8b518b	0.068026625
198	0x3d5017a5	0.0508038
199	0x3ec29c3b	0.3800982
200	0xbe0e0b54	-0.13871509
201	0xbe0ba0dc	-0.13635582
202	0x3d17c6e0	0.037054896
203	0xbd36848e	-0.044560008
204	0x3d8cd984	0.06877425
205	0xbdf6f2c8	-0.120580256
206	0xbda3dfe5	-0.08001689
207	0x3d8a15b6	0.06742422
208	0x3d23383f	0.039848562
209	0xbda9a7df	-0.08283972
210	0xba06acfb	-0.00051374704
211	0x3dc8eb88	0.09810549
212	0xbd92da09	-0.07170493
213	0xbbdd79fc	-0.0067589264
214	0x3db1a6f1	0.0867442
215	0xbe0f4668	-0.13991702
216	0x3d759dbd	0.059964884
217	0xbe07f13b	-0.13275616
218	0xbe09822e	-0.13428566
219	0xbdda88ac	-0.10670599
220	0xbdd734bc	-0.10508105
221	0xbd242306	-0.040072463
222	0x3dec62ec	0.11542305
223	0x3cfb6692	0.030688558
224	0x3d61c377	0.05511805
225	0x3d8566a0	0.06513715
226	0x3d5f7438	0.054554194
227	0xbe0d7865	-0.13815458
228	0xbd1f6e02	-0.03892327
229	0x3d9b892d	0.075945236
230	0x3d064992	0.032785006
231	0x3d805bd9	0.062675186
232	0xbda1aac5	-0.078939
233	0xbcd39063	-0.025825685
234	0xbd8d0ab6	-0.068868086
235	0xbd92e171	-0.07171906
236	0x3d4b0340	0.049563646
237	0xbd81b1ac	-0.06332716
238	0xbd62fb62	-0.05541552
239	0xbd3d5237	-0.046220984
240	0x3dc0b908	0.09410292
241	0xbd2ad629	-0.041708145
242	0xbbd61b7e	-0.006534039
243	0xbd581a79	-0.05275962
244	0x3d5c37a7	0.05376401
245	0x3d22a563	0.039708506
246	0xbda1ec61	-0.07906414
247	0xbd42af88	-0.04753068
248	0xbd962633	-0.07331505
249	0x3daa7216	0.083225414
250	0x3cf90ca7	0.03040154
251	0x3e459cc5	0.19298084
252	0xbe271dc8	-0.16319954
253	0x3c957247	0.018242968
254	0x3bddbe6a	0.006767084
255	0xbde23091	-0.110444196

network.2.bias f4 [60]
0	0xbcaa00ec	-0.020752393
1	0x3e4e9b2a	0.20176378
2	0xbd7fb61e	-0.06242954
3	0x3e28047d	0.16407962
4	0xbb4af154	-0.0030966597
5	0x3c871bfe	0.01649284
6	0x3e3a9e4d	0.1822445
7	0x3d8f3358	0.06992215
8	0xbdd18b75	-0.102316774
9	0x3e1430dd	0.14471765
10	0x3e32dc0b	0.17466752
11	0xbd131462	-0.03590811
12	0x3c0a5385	0.008442764
13	0x3e147d65	0.14500959
14	0xbd6bf73b	-0.057608824
15	0x3d75bed9	0.05999646
16	0xbdfb2465	-0.12262801
17	0xbd3d8c45	-0.04627635
18	0x3da3d291	0.07999147
19	0x3cda7677	0.026667817
20	0x3dadb6ef	0.084821574
21	0x3b8c4ef7	0.0042818743
22	0x3db7bd49	0.0897165
23	0xbe021276	-0.12702355
24	0x3dd31028	0.10305816
25	0xbdf0acd3	-0.117517136
26	0x3dfcdff0	0.123474
27	0xbdf46ce1	-0.119348295
28	0xbd6667f1	-0.05625147
29	0xbde6d1d9	-0.11270494
30	0x3daa2d1f	0.083093874
31	0xbdd5239c	-0.104071826
32	0xbe00a86d	-0.1256425
33	0x3da82f68	0.08212167
34	0x3dec98c2	0.11552574
35	0xbc04acf3	-0.008097875
36	0xbdd78b77	-0.10524648
37	0x3da0644a	0.078316286
38	0x3d5310ec	0.05152981
39	0xbc35a100	-0.011085749
40	0xbd14b5f5	-0.03630634
41	0x3df10950	0.11769354
42	0xbc236dd7	-0.009974918
43	0xbd46c70b	-0.048529666
44	0xbda0230f	-0.07819187
45	0x3decd140	0.11563349
46	0x3c6365ee	0.013879282
47	0x3d4bca29	0.04975334
48	0xbddb29d7	-0.1070134
49	0xbe24a55a	-0.16078702
50	0x3dd75ec9	0.10516126
51	0xbd8df763	-0.06931951
52	0x3c9bd7b3	0.019023752
53	0x3d5f072c	0.0544502
54	0xbca802a7	-0.020509077
55	0xbd839bf9	-0.06426234
56	0x3bbc306e	0.005743078
57	0xbdd82a20	-0.1055491
58	0x3e03dfae	0.12878296
59	0xbd87cb50	-0.06630576

network.4.weight f4 [10, 60]
0	0xbe6a8039	-0.22900476
1	0xbed94d1e	-0.42441648
2	0xbe2860bf	-0.16443156
3	0xbe0b11db	-0.1358103
4	0x3d506315	0.050875742
5	0xbeaf4384	-0.34231198
6	0xbddf7136	-0.10910265
7	0x3d0bb00d	0.034103442
8	0xbcf40125	-0.029785702
9	0x3e2d4097	0.1691917
10	0x3e7e398e	0.24826643
11	0x3dc2a9a0	0.0950501
12	0x3cb5c2bb	0.022187581
13	0x3d232855	0.039833385
14	0x3c2929d6	0.010324916
15	0xbda78a30	-0.08180654
16	0x3e62c205	0.22144325
17	0x3e97a174	0.29615366
18	0xbe48ea64	-0.19620663
19	0xbe3382b7	-0.17530333
20	0x3deaf2d0	0.11472094
21	0xbeb06e1e	-0.34459013
22	0xbec777f0	-0.38958693
23	0xbe4f694e	-0.20255014
24	0x3d008f80	0.031386852
25	0x3e472b54	0.19450122
26	0xbc56e908	-0.013117082
27	0x3c20ccf1	0.009814487
28	0xbddf0bd8	-0.10890931
29	0xbe0f30d1	-0.13983466
30	0xbdbd0512	-0.09229483
31	0xbe5f3fd4	-0.21801692
32	0xbd373577	-0.044728722
33	0xbe1b8842	-0.15188697
34	0xbe02bffd	-0.1276855
35	0xbdb0cdb1	-0.086329825
36	0x3e8c078d	0.2734951
37	0xbc0f6533	-0.008752155
38	0xbc78a089	-0.015174993
39	0x3e11f476	0.1425341
40	0x3d225922	0.039635785
41	0xbd4ed818	-0.05049905
42	0xbd0d523a	-0.034502245
43	0xbded61ab	-0.11590894
44	0xbde55289	-0.11197383
45	0xbdc6812d	-0.09692607
46	0xbebec7e1	-0.3726187
47	0xbd40041d	-0.046878923
48	0x3d62ad2c	0.05534093
49	0xbca5bac8	-0.020230666
50	0x3ecef309	0.40419796
51	0xbd1ec898	-0.03876552
52	0x3c99a9e6	0.018757772
53	0x3d8f94a4	0.07010773
54	0x3edaab23	0.42708692
55	0x3e227c46	0.15867719
56	0x3eb77247	0.35829374
57	0x3e419bcf	0.18907093
58	0xbeaafd54	-0.333964
59	0x3c97c6a7	0.018527342
60	0xbdd5ce69	-0.1043976
61	0x3e97b2e1	0.2962866
62	0x3d955d57	0.07293194
63	0xbeb72add	-0.3577489
64	0xbdebc939	-0.115129896
65	0x3dd1dbf9	0.102470346
66	0x3e8e5647	0.278002
67	0xbe02f220	-0.12787676
68	0xbe0c34d6	-0.1369203
69	0xbdff6c32	-0.124718085
70	0xbe4fd95e	-0.20297763
71	0xbd8e7a22	-0.06956889
72	0x3d17fa5a	0.03710399
73	0xbea51470	-0.32242155
74	0x3d295ad6	0.041346394
75	0xbe240c6a	-0.1602036
76	0x3ec52b7d	0.3850974
77	0xbde81aa6	-0.11333208
78	0x3e32ad85	0.17449005
79	0x3ef12944	0.47101796
80	0xbd5bdfc2	-0.05368019
81	0x3ee6cb0d	0.4507679
82	0x3d498915	0.049202997
83	0x3ed5a8ff	0.41730496
84	0xbdb155f3	-0.08658972
85	0x3dd1d736	0.10246126
86	0xbbb40b41	-0.0054945056
87	0x3cbc37b2	0.022975776
88	0x3da16c91	0.078820355
89	0xbe68a4fd	-0.22719188
90	0x3cc52ac4	0.024068244
91	0x3ead8eba	0.33897954
92	0xbdefb441	-0.117043026
93	0xbe5b84d5	-0.2143739
94	0xbdda4d23	-0.10659244
95	0x3e11dd0b	0.14244477
96	0xbef6d1da	-0.4820698
97	0xbe270433	-0.16310196
98	0x3d330ac7	0.04371145
99	0xbdca823f	-0.09888124
100	0xbcd473dc	-0.025934152
101	0xbddd2c73	-0.10799494
102	0xbc94578a	-0.018108148
103	0xbb918bbe	-0.0044417074
104	0xbe1fa1db	-0.15589087
105	0x3d01c7c3	0.03168465
106	0x3cee0e52	0.029059563
107	0xbd25369d	-0.040335286
108	0x3e414e3b	0.18877499
109	0xbc926365	-0.01786966
110	0xbe8be56b	-0.2732347
111	0x3d854422	0.06507136
112	0xbda0af3c	-0.07845923
113	0x3d1619d8	0.03664574
114	0xbeaf84b2	-0.34280926
115	0x3da6b324	0.08139637
116	0xbbbcccc4	-0.0057617147
117	0xbdfe81e6	-0.1242712
118	0x3da27531	0.07932509
119	0x3d4ef82b	0.05052964
120	0x3e1a0392	0.15040424
121	0xbe9c1e3a	-0.3049181
122	0x3e554a07	0.2082902
123	0xbe91f764	-0.28509057
124	0xbd3d6b1c	-0.046244726
125	0xbe1a340f	-0.15058921
126	0x3e671681	0.22567178
127	0xbd61bbff	-0.055110928
128	0x3ea7a8d4	0.32745993
129	0x3e05c591	0.13063647
130	0x3e73cc0b	0.23808305
131	0x3bc136fd	0.0058964477
132	0xbdec5f8f	-0.11541664
133	0xbe7bc63a	-0.24587336
134	0xbe22019b	-0.15820925
135	0x3d95cd26	0.073145196
136	0x3f1a9ed8	0.60398626
137	0x3d3312c3	0.043719064
138	0xbcf33845	-0.029689917
139	0xbdf8c20e	-0.12146388
140	0x3e3e1141	0.1856127
141	0x3e9d4c75	0.30722395
142	0xbe6a6081	-0.22888376
143	0xbedae3c5	-0.427519
144	0x3e6f0e56	0.23345312
145	0xbb872a90	-0.004124947
146	0x3e0268cc	0.1273529
147	0x3e0c9305	0.13727959
148	0xbcdfaf7b	-0.027305355
149	0x3ea50365	0.32229152
150	0xbd514360	-0.051089644
151	0x3ea18375	0.31545606
152	0x3eaaa28f	0.33327147
153	0x3e2f7b03	0.17136769
154	0x3dd85b4b	0.10564288
155	0x3e9fbd7b	0.3119925
156	0x3dff174c	0.124556154
157	0x3d8e5c3d	0.06951187
158	0x3e6a87cf	0.2290337
159	0x3e1b70f7	0.15179811
160	0xbcb837f5	-0.02248762
161	0x3d7bf9f9	0.06151769
162	0x3d175eba	0.036955573
163	0x3d977187	0.073947005
164	0xbe01cfc9	-0.1267692
165	0x3e68c9c5	0.22733219
166	0xbe63edc5	-0.2225867
167	0x3e7310a7	0.23736821
168	0x3dbf53a7	0.09342127
169	0xbe64799c	-0.22312015
170	0xbd375c29	-0.044765625
171	0x3c653046	0.01398856
172	0x3e93adc5	0.28843513
173	0xbdf018bf	-0.1172347
174	0x3d2f65ce	0.042821698
175	0xbc56a923	-0.013101849
176	0xbedb8487	-0.42874548
177	0x3d2d391a	0.042290784
178	0x3d8d4e39	0.068996854
179	0xbb99a8c9	-0.00468931
180	0x3e22faaf	0.1591594
181	0xbbaebb68	-0.005332399
182	0xbdb5552c	-0.08854136
183	0x3e93cdde	0.28868002
184	0x3d3eceeb	0.04658405
185	0x3e79e050	0.24401975
186	0xbd01c6cf	-0.03168374
187	0xbdcf517d	-0.101229645
188	0xbc958249	-0.018250601
189	0x3df87890	0.121323705
190	0x3e888fd9	0.26672247
191	0xbda4f6d9	-0.08054895
192	0x3dcdd6b1	0.10050715
193	0xbecfd245	-0.4059011
194	0x3eb7b25f	0.35878274
195	0x3e2b8e63	0.16753535
196	0x3dbbb98f	0.09166252
197	0x3e8671d8	0.2625873
198	0xbdfc6777	-0.12324422
199	0xbd968f50	-0.073515534
200	0xbcbdfd36	-0.02319203
201	0x3d1a8313	0.03772266
202	0xbe64d586	-0.22347078
203	0x3d4d0814	0.050056532
204	0x3dbdb0ef	0.09262263
205	0xbe4cbc14	-0.19993621
206	0x3d9b9983	0.075976394
207	0xbcdb1552	-0.026743565
208	0x3dd9f511	0.10642446
209	0x3dc27bb6	0.09496252
210	0xbd8fae17	-0.07015627
211	0x3d9260d3	0.07147374
212	0x3ea6dcdc	0.32590377
213	0xbe014a5a	-0.12626019
214	0x3ed9ea48	0.42561555
215	0xbe4bbf8d	-0.1989729
216	0xbdeea9be	-0.116534695
217	0xbee41a70	-0.4455142
218	0xbe06a55f	-0.13149022
219	0xbe300f67	-0.17193376
220	0x3d9c6679	0.076367326
221	0xbdb7e4c4	-0.089791805
222	0x3da4a7d5	0.08039824
223	0x3dcd0641	0.100109585
224	0x3b9e3511	0.0048281034
225	0xbe924e6b	-0.28575453
226	0x3ebeeebd	0.37291518
227	0xbacac6df	-0.0015470645
228	0x3bc46f3d	0.005994706
229	0xbd1aa1b6	-0.037751876
230	0xbeb1460f	-0.34623763
231	0x3d968417	0.07349413
232	0xbc97126d	-0.018441403
233	0x3dc30a65	0.09523467
234	0x3df3f297	0.11911505
235	0x3e17e535	0.1483353
236	0x3dfa5507	0.12223249
237	0x3e2a1320	0.16608858
238	0x3eb702ff	0.35744473
239	0x3d07643f	0.033054586
240	0xbe6cd0a6	-0.23126468
241	0xbe3ad622	-0.18245748
242	0xbe23094d	-0.15921517
243	0x3ec5196b	0.38495955
244	0x3d8d11da	0.068881705
245	0x3eaa9f74	0.33324778
246	0x3dd3c3f9	0.10340113
247	0xbe0a4e59	-0.1350645
248	0xbe34a4d9	-0.1764101
249	0xbf1611ec	-0.58621097
250	0xbe923773	-0.2855793
251	0x3e17d7de	0.1482844
252	0xbcbb20c1	-0.022842767
253	0x3ecaf8c7	0.39642927
254	0x3dc2e731	0.095167525
255	0x3e8ed547	0.27897093

network.4.bias f4 [10]
0	0xbd0454df	-0.032307502
1	0xbe3df739	-0.18551339
2	0xbd302fe0	-0.043014407
3	0x3cfcdbf7	0.030866606
4	0xbdcc44e9	-0.09974081
5	0x3cc23083	0.023704773
6	0xbd95435b	-0.07288238
7	0xbe5a7d1a	-0.21336785
8	0x3eb6894b	0.3565162
9	0x3d8494a2	0.06473662
