models/mnist_train.pth (torch, 102415 bytes, 8 tensors)

conv1.weight f4 [6, 1, 5, 5]
0	0xbc29c140	-0.010361016
1	0xbd97421d	-0.07385657
2	0x3e81abf4	0.25326502
3	0x3eab89c8	0.33503556
4	0x3cf1b8b7	0.029507024
5	0x3de2f0a2	0.11081053
6	0xbe875cb8	-0.26437926
7	0x3bcc453d	0.00623384
8	0x3e2ef6f2	0.1708639
9	0x3e3b2b4a	0.18278232
10	0xbdbd88a2	-0.09254576
11	0xbdd4e748	-0.10395676
12	0xbddc1ceb	-0.10747703
13	0x3e030513	0.12794904
14	0x3e98c8b6	0.2984063
15	0xbd21f4ff	-0.039540287
16	0xbe2a3f6d	-0.16625758
17	0x3b77bf2c	0.0037803156
18	0xbd3301dc	-0.043702945
19	0x3e536941	0.2064562
20	0xbe17d5af	-0.14827608
21	0xbe9828b9	-0.2971857
22	0xbec0dea6	-0.37669867
23	0x3c4e7828	0.01260189
24	0xbc8a4910	-0.016880542
25	0xbe05ffe2	-0.13085893
26	0xbe5d8412	-0.21632412
27	0xbd3410da	-0.043961383
28	0x3db14513	0.08655753
29	0x3ed0227d	0.40651312
30	0xbed8d02b	-0.4234632
31	0xbe22118e	-0.15827009
32	0xbde02118	-0.10943812
33	0x3ea733fe	0.32656854
34	0x3eb34188	0.35010934
35	0xbed7543c	-0.42056453
36	0xbc7d90c6	-0.015476411
37	0x3e807ed5	0.25096765
38	0x3ef2785d	0.47357455
39	0x3e41a34a	0.18909946
40	0xbea9f086	-0.33191317
41	0xbc8acee0	-0.016944349
42	0x3ec2858d	0.37992516
43	0x3eddd77b	0.4332846
44	0xbdde2d1c	-0.10848448
45	0xbea529df	-0.32258508
46	0x3e00622d	0.12537451
47	0x3ebfa64b	0.3743156
48	0x3e94b235	0.2904221
49	0xbe903269	-0.2816346
50	0x3dbd3ebf	0.092404835
51	0x3e681f66	0.22668228
52	0x3eda1bd0	0.42599344
53	0x3d8e5d61	0.06951404
54	0xbe7218d4	-0.23642284
55	0x3e054e92	0.13018253
56	0xbd641b17	-0.055689897
57	0x3eaef91a	0.34174424
58	0xbe21d9e4	-0.15805775
59	0xbeab8f51	-0.3350778
60	0xbdf5cac1	-0.12001563
61	0x3e4f76d6	0.20260176
62	0x3e66c90a	0.22537628
63	0xbe5439ca	-0.2072517
64	0xbe844b2d	-0.25838605
65	0x3dcf319d	0.10116885
66	0x3d38aad3	0.045084786
67	0x3dd34403	0.103157066
68	0x3d90b7f9	0.0706634
69	0xbed56732	-0.41680294
70	0xbd92f2c2	-0.07175209
71	0x3d63d9b8	0.055627555
72	0x3e06f001	0.13177492
73	0xbe196087	-0.14978229
74	0xbd95c154	-0.07312265
75	0xbd8cd406	-0.06876378
76	0x3dcac542	0.09900905
77	0x3d16e191	0.03683621
78	0xbcf3c625	-0.029757569
79	0xbdbc5693	-0.091962
80	0x3f061a61	0.52384
81	0x3f26862f	0.650485
82	0x3ebab049	0.3646262
83	0x3e8b13a1	0.27163413
84	0x3e819211	0.25306752
85	0xbc070dcb	-0.008243035
86	0x3e7116c0	0.23543835
87	0x3e7478d1	0.23874213
88	0x3e6cc228	0.2312094
89	0x3e0696f6	0.13143525
90	0xbdc818e4	-0.097703725
91	0xbebebeed	-0.3725504
92	0xbe1992f1	-0.1499746
93	0xbe763e8c	-0.24047297
94	0x3d221f7c	0.039580807
95	0xbef9c864	-0.48785698
96	0xbef600f1	-0.48047593
97	0xbec943fa	-0.39309675
98	0xbe3155ec	-0.17317933
99	0xbddb55e0	-0.10709739
100	0x3d7a8075	0.061157662
101	0x3e1d1406	0.1533967
102	0xbe21f628	-0.15816557
103	0xbef260c2	-0.47339445
104	0xbf2dca51	-0.67886835
105	0x3cb658d6	0.022259157
106	0x3ccf4453	0.025301134
107	0x3eaa3558	0.33243823
108	0x3e64103b	0.22271816
109	0xbeb0d6f0	-0.34538984
110	0xbd5c4149	-0.0537732
111	0x3e84d5de	0.25944418
112	0x3f1b5789	0.60680443
113	0x3f54a48c	0.8306358
114	0x3e94ac0b	0.29037508
115	0xbd34bd63	-0.044125926
116	0xbe252cf9	-0.16130437
117	0xbe1ed466	-0.15510711
118	0x3ea683b2	0.3252235
119	0x3e46799d	0.1938233
120	0xbe73d681	-0.23812295
121	0xbe613560	-0.21993017
122	0xbee4c6ff	-0.44683072
123	0xbe641489	-0.22273459
124	0x3e8c00be	0.27344316
125	0x3e6619d2	0.22470787
126	0x3eebac19	0.46029738
127	0x3e8ada76	0.27119797
128	0xbe9311f0	-0.28724623
129	0xbde6913f	-0.11258172
130	0xbc14d872	-0.009084808
131	0x3edfbef9	0.43700388
132	0x3e7494c5	0.23884876
133	0xbe87eb1b	-0.2654656
134	0xbda34306	-0.07971768
135	0xbd5d4179	-0.054017518
136	0x3dfc7edc	0.12328884
137	0x3e851a31	0.25996545
138	0x3d47e985	0.048806686
139	0x3e6d7e1d	0.2319264
140	0xbe51e016	-0.20495638
141	0xbdd79ac8	-0.10527569
142	0x3ebc7991	0.36811498
143	0x3ed57362	0.41689593
144	0x3c6d500f	0.0144844195
145	0x3c11f106	0.008907562
146	0x3dad7742	0.08470012
147	0x3ec3df49	0.3825629
148	0x3dfd4ce0	0.12368178
149	0xbe4d3c5f	-0.20042561

conv1.bias f4 [6]
0	0xbdc61290	-0.09671509
1	0x3df80d30	0.1211189
2	0xbcf0167a	-0.029307593
3	0x3e609d05	0.21934898
4	0x3c931194	0.017952718
5	0xbd9f02e2	-0.07764222

conv2.weight f4 [16, 6, 5, 5]
0	0x3ca3a826	0.01997764
1	0xbbddc48a	-0.006767814
2	0xbcf25f2b	-0.029586395
3	0xbb939ad8	-0.004504543
4	0x3da5e1bc	0.08099696
5	0x3e026f5a	0.1273779
6	0xbd5244ad	-0.051335026
7	0xbde60696	-0.11231725
8	0x3dd79f0e	0.10528384
9	0x3e2420cf	0.1602814
10	0x3dd3c5bb	0.103404485
11	0xbcddb713	-0.027064836
12	0x3b0d6576	0.0021575368
13	0x3da5a173	0.080874346
14	0x3d885823	0.06657436
15	0x3bd9cd2a	0.006646772
16	0xbc3c16cb	-0.011480044
17	0xbd500de9	-0.050794516
18	0x3bb504e2	0.0055242637
19	0x3c72f76a	0.014829496
20	0xbacd1bfb	-0.0015648598
21	0xbd55b57d	-0.052175034
22	0xbdd8eea5	-0.10592393
23	0x3ca26e4f	0.01982799
24	0x3c43e79d	0.011957076
25	0xbb8fac0f	-0.0043845247
26	0x3db67d97	0.08910673
27	0x3cc661b3	0.024216508
28	0xbc905add	-0.017621452
29	0xbd51e6c3	-0.051245462
30	0x3b251e75	0.0025195156
31	0x3e163f0a	0.14672485
32	0x3e271191	0.16315295
33	0x3db6d594	0.089274555
34	0x3e634619	0.22194709
35	0x3e1f3710	0.15548348
36	0x3e454222	0.19263509
37	0x3dea630d	0.11444674
38	0x3c53c68a	0.012925753
39	0x3e65fc86	0.22459611
40	0x3d886e58	0.066616714
41	0x3d0609d9	0.032724235
42	0x3cc05b96	0.023481172
43	0xbcddc2ce	-0.02707043
44	0x3dacf0b1	0.08444346
45	0xbd870926	-0.06593542
46	0xbca28c24	-0.019842215
47	0xbe457dc6	-0.1928626
48	0xbd65f7e9	-0.05614463
49	0xbd499ca7	-0.04922166
50	0xbd85d41a	-0.06534596
51	0xba0ac72c	-0.0005293961
52	0xbda691b5	-0.0813326
53	0x3d154854	0.03644593
54	0xbd043ed3	-0.032286476
55	0x3d10c90f	0.035347994
56	0x3d85dabe	0.065358624
57	0x3d930316	0.07178323
58	0x3de94b01	0.11391259
59	0xbd4b921a	-0.04969988
60	0xbc3d3e14	-0.011550445
61	0x3dc3d796	0.09562604
62	0x3cc9f1e7	0.02465148
63	0x3d6a4de9	0.057203207
64	0xbcd246e0	-0.025668561
65	0xbd131b84	-0.035914913
66	0x3dd6536a	0.10465129
67	0x3dbce5ef	0.09223544
68	0x3d45cd0d	0.048291255
69	0x3d342cf2	0.043988176
70	0x3ddd4434	0.10804024
71	0x3c9a39a2	0.01882631
72	0x3b94fc1b	0.004546655
73	0xbd9f364f	-0.077740304
74	0xbd06bfe6	-0.032897852
75	0x3dcdbc86	0.100457236
76	0x3dd1f900	0.10252571
77	0x3d9c3b4d	0.07628498
78	0x3e2984ae	0.1655452
79	0x3e1b60ab	0.15173595
80	0x3cb5e3c6	0.022203337
81	0x3cc30b5a	0.023809124
82	0xbd48594a	-0.048913278
83	0x3d030caa	0.0319945
84	0x3dfb5765	0.122725286
85	0x3cb44984	0.022007711
86	0x3cc0220d	0.023453737
87	0xbd67ae2a	-0.05656258
88	0xbe3d774b	-0.18502538
89	0xbe461689	-0.19344534
90	0xbd8385be	-0.06421994
91	0xbd839ba9	-0.06426174
92	0xbde03ec6	-0.10949473
93	0xbdee5c61	-0.11638714
94	0xbd395e64	-0.045256034
95	0xbe235629	-0.15950836
96	0xbe0f16fa	-0.13973609
97	0xbe2a60a4	-0.16638428
98	0xbe709b71	-0.23496796
99	0xbde36b95	-0.11104504
100	0x3e02d1c5	0.12775333
101	0x3e0307bc	0.12795919
102	0x3d510304	0.051028267
103	0x3db8ab81	0.09017087
104	0x3dc2d873	0.09513941
105	0x3bc2ea67	0.005948353
106	0xbd92ca63	-0.071675085
107	0xbe385892	-0.18002537
108	0xbe041821	-0.1289983
109	0xbd29f390	-0.041492045
110	0xbdf04802	-0.117324844
111	0xbe1bbf63	-0.15209727
112	0xbe537935	-0.20651706
113	0xbe54e025	-0.2078863
114	0xbe314647	-0.17311965
115	0xbe035ec2	-0.12829116
116	0xbe0d86eb	-0.13820998
117	0xbde98e33	-0.114040755
118	0xbe0da775	-0.13833411
119	0xbdd5b086	-0.1043406
120	0xbe51f728	-0.20504439
121	0xbe04d6aa	-0.12972513
122	0xbe47053c	-0.1943559
123	0xbd8132cf	-0.06308519
124	0x3d1f1a7a	0.03884361
125	0x3d816c23	0.063194536
126	0xbd250e1e	-0.040296666
127	0x3ce41240	0.027840734
128	0x3d769a27	0.060205605
129	0xbd96813c	-0.07348868
130	0xbd3849d8	-0.044992298
131	0x3c22aaa5	0.00992838
132	0x3cfef003	0.031120306
133	0x3d147caf	0.03625172
134	0x3d978efb	0.07400318
135	0xbcfee892	-0.031116758
136	0xbbdc8110	-0.0067292526
137	0xbdfc45b6	-0.12317984
138	0xbdac52a8	-0.08414203
139	0x3d778d5b	0.06043754
140	0xbcab6f4b	-0.020927092
141	0xbdc3c0b9	-0.09558243
142	0xbd91f22c	-0.07126269
143	0xbd44f7ad	-0.048087765
144	0xbd8c382d	-0.06846652
145	0xbe060c87	-0.13090716
146	0xbe182557	-0.14857994
147	0xbe28d126	-0.16486034
148	0xbe2503d6	-0.16114745
149	0xbabf5479	-0.0014597318
150	0xbce8de38	-0.028426275
151	0xbdc243de	-0.09485601
152	0x3c846085	0.016159305
153	0x3b078e06	0.0020684018
154	0xbe0ff5c6	-0.14058599
155	0xbc6c5004	-0.014423374
156	0xbd87e199	-0.06634826
157	0x3d0587cc	0.03260021
158	0x3da16d52	0.07882179
159	0x3d147434	0.036243632
160	0xb898571c	-7.26415e-05
161	0xbd4adfb8	-0.04952976
162	0x3d6af3ef	0.05736154
163	0x3ddcff03	0.10790827
164	0xbd67f4b0	-0.056629837
165	0xbd2de7ae	-0.042457275
166	0xbb444f40	-0.0029954463
167	0x3d94739a	0.07248612
168	0xbc6992e9	-0.0142562175
169	0xbd546e2e	-0.051862888
170	0x3c111832	0.008855866
171	0xbc7d65c5	-0.015466158
172	0xbd978e06	-0.07400136
173	0xbd3feb2b	-0.046855133
174	0xbdb7bf69	-0.089720555
175	0x3d4f284d	0.050575543
176	0x3e143f0b	0.14477174
177	0x3d7debad	0.061992336
178	0x3e6071e7	0.2191845
179	0x3c9b3b2d	0.018949116
180	0x3d8f409f	0.06994747
181	0x3d94623b	0.072452985
182	0x3de5054b	0.1118265
183	0x3e9d0ed6	0.3067538
184	0x3d3eaca0	0.046551347
185	0x3ccb83e4	0.024843164
186	0x3abb5809	0.0014293204
187	0xbbfbd911	-0.0076857884
188	0xbd6f21cb	-0.058381837
189	0xbdeb8358	-0.11499661
190	0x3d8a4c23	0.06752803
191	0xbd6f7010	-0.05845648
192	0xbe870e0a	-0.26377898
193	0xbe3be7ec	-0.1835019
194	0xbda728df	-0.081620924
195	0xbdbe49b1	-0.09291399
196	0xbe6abe16	-0.22924075
197	0xbe44c502	-0.19215778
198	0xbb05220b	-0.002031448
199	0xbdf8df11	-0.121519215
200	0x3ca3df95	0.020004073
201	0xbbd406bd	-0.00647053
202	0xbd84a08e	-0.06475936
203	0xbcdd5e63	-0.027022546
204	0x3d1a35b1	0.03764886
205	0xbd743de8	-0.05962935
206	0xbd8cf687	-0.06882959
207	0xbd1f2d83	-0.038861763
208	0x3d30385e	0.043022506
209	0x3de29d71	0.11065186
210	0xbdeac1c3	-0.11462738
211	0xbda67989	-0.0812865
212	0xbc502c06	-0.0127058085
213	0x3dcc25ed	0.09968171
214	0x3e0f0523	0.13966803
215	0xbd6999b1	-0.057031337
216	0xbcec14c6	-0.0288185
217	0x3d1b2316	0.037875257
218	0x3d2e3550	0.04253131
219	0x3b4a2454	0.0030844407
220	0xbcdb17ab	-0.026744684
221	0x3d6e7bd0	0.058223546
222	0xbcaf6186	-0.021408807
223	0xbc58f012	-0.013240831
224	0xbdf04509	-0.117319174
225	0xbc85877e	-0.01629996
226	0xbdac3c52	-0.08409943
227	0xbd1f90cf	-0.03895646
228	0xbba9b108	-0.0051785745
229	0xbe1b564a	-0.15169635
230	0xbd25821d	-0.04040729
231	0xbdeb24b9	-0.11481614
232	0xbd553492	-0.052052088
233	0xbd9b5a31	-0.07585562
234	0x3da024df	0.078195326
235	0x3dc224bf	0.09479665
236	0x3cd9681a	0.026538897
237	0x3dc54273	0.09631815
238	0x3e7ba335	0.24573977
239	0x3d8e4b08	0.06947905
240	0x3d998c02	0.074974075
241	0x3da1ce87	0.0790072
242	0x3e097b6c	0.13425988
243	0x3c9f97ee	0.019481625
244	0xbe30eebb	-0.17278568
245	0x3cb9f45a	0.022699524
246	0xbd251a36	-0.0403082
247	0xbdf8e319	-0.121526904
248	0xbde475f3	-0.111553095
249	0xbdf7a328	-0.120916665
250	0x3d320f68	0.043471724
251	0x3d16287c	0.036659703
252	0xbd99ff53	-0.07519402
253	0xbce6bbf1	-0.02816579
254	0xbd9edd0f	-0.07757007
255	0x3d8e865a	0.06959219

conv2.bias f4 [16]
0	0xbdc7c472	-0.09754266
1	0x3d3037c8	0.043021947
2	0xbce3cae3	-0.027806705
3	0xbd8c09b6	-0.0683779
4	0x3b1e7b67	0.002418244
5	0x3d8aa480	0.06769657
6	0xbd37cc55	-0.0448726
7	0xbb92542d	-0.004465601
8	0xbdb919ab	-0.09038099
9	0x3d089ee0	0.03335464
10	0x3ccf87e4	0.025333352
11	0xbd3509aa	-0.04419867
12	0xbde65675	-0.11246959
13	0xbc44d708	-0.012014158
14	0x3de1d423	0.1102679
15	0xbdac965a	-0.08427115

fc1.weight f4 [84, 256]
0	0xbd141781	-0.036155228
1	0xbc1d95b5	-0.0096182125
2	0x3d02aba6	0.031901978
3	0xbd3603ec	-0.044437334
4	0x3dbfa4dd	0.09357617
5	0xbd05bbce	-0.032649808
6	0xbccaceb6	-0.02475677
7	0xbc741a7e	-0.014898894
8	0xbd2a6cae	-0.04160755
9	0xbdad0405	-0.08448032
10	0x3cff8e8b	0.0311959
11	0x3d925c93	0.071465634
12	0xbdc3bc7a	-0.095574334
13	0xbdc7152d	-0.09720836
14	0x3afa1f3d	0.0019082796
15	0x3d9dfc61	0.07714153
16	0x3d6a2491	0.05716378
17	0xbda0cf84	-0.078520805
18	0xbdc5fc9d	-0.09667323
19	0xbe89c6cd	-0.26909485
20	0x3d9e3529	0.07724983
21	0x3d74209f	0.059601422
22	0x3d650a16	0.05591782
23	0x3d8233d4	0.06357542
24	0xbdbe7a1e	-0.09300636
25	0x3e03fc84	0.12889296
26	0x3c654e1f	0.013995676
27	0x3db08c84	0.08620551
28	0x3db67654	0.08909288
29	0x3d5f61aa	0.0545365
30	0x3b36fc3c	0.002792134
31	0x3d094a7c	0.0335183
32	0x3dbd049b	0.09229394
33	0xbd570551	-0.052495304
34	0xbd1fd424	-0.039020672
35	0xbe294d66	-0.16533431
36	0x3d42df96	0.04757651
37	0xbd2e2779	-0.042518113
38	0xbd76f7b0	-0.060294807
39	0xbe0e7091	-0.13910128
40	0xbdc6cbdc	-0.09706852
41	0xbd67405c	-0.056457862
42	0x3d64cec4	0.05586125
43	0x3cc90637	0.024539096
44	0xbaaf490f	-0.0013373214
45	0x3d8b2199	0.067935176
46	0xbd26c36d	-0.040713716
47	0x3cd119a2	0.025524918
48	0xbdc82634	-0.09772912
49	0xbdf6c3c8	-0.12049061
50	0x3db1e18c	0.08685598
51	0x3e4fe79f	0.203032
52	0xbcd4887c	-0.025943987
53	0xbda1dd89	-0.079035826
54	0x3da94707	0.082655005
55	0xbd0c21b2	-0.03421182
56	0xba9d3ea9	-0.0011996824
57	0xbcc02f79	-0.023460137
58	0x3c8988b4	0.016788818
59	0xbd0d9b44	-0.0345719
60	0xbd1ea39b	-0.038730245
61	0x3b9ac554	0.0047232304
62	0x3cc35a33	0.023846721
63	0x3d92e481	0.0717249
64	0x3d0a420c	0.033754393
65	0x3e08b5b9	0.13350572
66	0x3e6b0e91	0.22954775
67	0x3d79f01e	0.06102001
68	0xbd05f7da	-0.032707073
69	0x3cbe5e43	0.023238307
70	0x3be6de9e	0.007045581
71	0xbe1fd18f	-0.15607284
72	0xbd4133c5	-0.047168512
73	0x3cc82ae3	0.024434512
74	0xbb1a0e86	-0.0023507192
75	0xbbb5351e	-0.0055300137
76	0xbd4f6298	-0.050631136
77	0xbd4b1547	-0.04958084
78	0xbdd23e18	-0.1026575
79	0xbdb1492b	-0.08656534
80	0xbe00b5d8	-0.12569368
81	0x3c7addc4	0.015311662
82	0xbb94ce7a	-0.0045412155
83	0xba09347b	-0.00052339555
84	0x3d6d2034	0.05789204
85	0x3dea681e	0.1144564
86	0xbd8270ea	-0.06369193
87	0x3cd816d1	0.026378067
88	0x3c89041a	0.016725589
89	0x3b868983	0.004105748
90	0xbd16e002	-0.036834724
91	0xbd726d1c	-0.059186086
92	0x3d1a3e48	0.037657052
93	0xbccde614	-0.025134124
94	0xbd998e46	-0.0749784
95	0xbd167b29	-0.03673855
96	0x3b9f5313	0.004862198
97	0xbd940857	-0.07228153
98	0xbd06d728	-0.032920033
99	0xbc9adc38	-0.018903837
100	0x3d1d4dd0	0.038404286
101	0xbd8a19ad	-0.067431785
102	0x3da96a7d	0.08272264
103	0x3ccb5c6c	0.024824344
104	0xbd1431b8	-0.036180228
105	0x3d0e3ca6	0.034725808
106	0x3d8c3e64	0.068478376
107	0x3da88b5c	0.08229706
108	0x3d264e74	0.040602162
109	0x3c4b04d0	0.012391284
110	0x3d24830d	0.040164042
111	0xbccb402c	-0.024810873
112	0x3c0f8a5d	0.008761016
113	0x3e166031	0.14685132
114	0x3df6081d	0.12013266
115	0x3b87d728	0.0041455217
116	0xbd6e5266	-0.05818405
117	0x3cef1d5e	0.029188808
118	0x3e328e57	0.17437111
119	0x3caf86ea	0.021426637
120	0x3cfac082	0.030609373
121	0x3d59434e	0.053042702
122	0xbc86df43	-0.016463881
123	0xbdf3b8eb	-0.11900505
124	0xbd373510	-0.04472834
125	0x3d4bbb52	0.04973919
126	0x3d6d0d5c	0.05787407
127	0xbb3f9a20	-0.0029236153
128	0xbdd90a9f	-0.10597729
129	0xbe0e2e70	-0.13884902
130	0xbdcfc2da	-0.10144587
131	0xbe208877	-0.15677057
132	0xbd9cdc06	-0.07659154
133	0xbd29aa45	-0.041422147
134	0xbd86d3bc	-0.06583354
135	0x3e0507e6	0.12991294
136	0xbc651673	-0.013982403
137	0x3d7119cb	0.05886249
138	0xbcc194c1	-0.023630502
139	0xbd8221da	-0.06354113
140	0x3e28a5f6	0.16469559
141	0x3e083e6f	0.13305067
142	0xbbeec1fe	-0.0072863093
143	0x39bbf59e	0.00035850418
144	0xbe08e33f	-0.13367938
145	0xbe36bd9a	-0.17845765
146	0x3b859e41	0.004077703
147	0x3d86eee1	0.06588531
148	0xbdb82d6d	-0.08993039
149	0xbe208caa	-0.15678659
150	0xbda1a187	-0.07892137
151	0x3d0d825f	0.03454816
152	0xbd93e291	-0.072209485
153	0x3c0042a3	0.007828387
154	0x3d91a034	0.071106344
155	0x3dc4a9fd	0.09602735
156	0xbd79326f	-0.060839113
157	0xbd5d82a3	-0.054079663
158	0xbd855c23	-0.06511714
159	0x3dc85757	0.09782284
160	0xbd2530c6	-0.040329717
161	0xbc119ac4	-0.008886997
162	0x3e0ee71c	0.13955349
163	0x3dba462c	0.090954155
164	0xbce61fc6	-0.028091323
165	0x39ab7f2c	0.00032710412
166	0x3d4f83bd	0.050662745
167	0xbd06f343	-0.032946836
168	0x3daf0c9c	0.08547327
169	0xbd966333	-0.073431395
170	0x3cecb020	0.028892577
171	0xbd57f933	-0.05272789
172	0x3d11cd8c	0.035596415
173	0xbcd9aa3f	-0.026570437
174	0xbdb26cc9	-0.08712155
175	0x3d2a674d	0.04160242
176	0xbb8c48da	-0.0042811455
177	0xbce7e19e	-0.028305825
178	0x3a88ce6c	0.0010437495
179	0xbd873b4c	-0.06603107
180	0xbcb0eab8	-0.021596298
181	0x3cb166eb	0.02165552
182	0xbca5bb58	-0.020230934
183	0xbd4adc8a	-0.04952673
184	0x3d52a8ea	0.05143062
185	0x3ca0fbfe	0.01965141
186	0xba6fa692	-0.00091419474
187	0xbd19544b	-0.037433904
188	0xbcdb08b6	-0.026737552
189	0x3c8bd776	0.017070513
190	0x3c2ad9c4	0.010427896
191	0x3d235007	0.039871242
192	0xbd5bd845	-0.053673048
193	0xbdb1f644	-0.086895496
194	0x3d938d70	0.072047114
195	0x3c872a10	0.01649955
196	0xbc6347e1	-0.013872118
197	0xbd4bc4c8	-0.049748212
198	0xbcfe3d3f	-0.031035064
199	0x3d1cb3a8	0.03825727
200	0x3d64cd5e	0.055859916
201	0xbb92756d	-0.0044695647
202	0xbd259b67	-0.040431406
203	0xbdc9c4b8	-0.09851974
204	0xbb8026ff	-0.0039108987
205	0x3da703cc	0.08155021
206	0x3c38bc57	0.0112753725
207	0xbcbb65ca	-0.022875685
208	0xbde512f6	-0.11185257
209	0xbd82f2fd	-0.063940026
210	0x3dbaa501	0.09113503
211	0xbc9ae2d0	-0.01890698
212	0xbd972194	-0.073794514
213	0xbdf7dc62	-0.121025816
214	0x3d2d17a0	0.04225886
215	0x3cccea41	0.025014045
216	0xbcfd511d	-0.030922467
217	0xbd846210	-0.064640164
218	0xbd5cdda0	-0.053922296
219	0xbd4017ae	-0.046897583
220	0x3cf8033c	0.03027498
221	0x3d8272bc	0.0636954
222	0x3db69419	0.08914966
223	0xbd32bdd1	-0.043638054
224	0x3d8456ed	0.06461892
225	0x3ca41ab8	0.020032272
226	0xbdc39aff	-0.095510475
227	0xbe881c3e	-0.26584047
228	0x3d98074e	0.07423268
229	0xbd0694e6	-0.032856844
230	0xbd96a1c8	-0.07355076
231	0xbe129c5b	-0.14317457
232	0x3d31433d	0.043277014
233	0xbc4c9b48	-0.012488194
234	0x3c81e911	0.015858205
235	0x3cacf18d	0.021111274
236	0xbc551678	-0.013005845
237	0x3dcfdf99	0.1015007
238	0xbca9cbf0	-0.020727128
239	0x3b619dbd	0.0034426295
240	0xbd66ac7b	-0.056316834
241	0x3e014a44	0.12625986
242	0x3e05aa27	0.13053189
243	0x3defc4a0	0.11707425
244	0xbd72be80	-0.059263706
245	0x3d7f8015	0.062378008
246	0xbd67eb69	-0.05662099
247	0xbdd128e9	-0.10212881
248	0x3ce5d2fe	0.02805471
249	0xbbd47d11	-0.0064846356
250	0xbd7b38da	-0.061333515
251	0xbcc3ed0a	-0.02391674
252	0xbd9a749c	-0.07541773
253	0x3ded58a8	0.115891755
254	0xbcb1104d	-0.021614218
255	0xbc4df19e	-0.012569813

fc1.bias f4 [84]
0	0xbd2daa65	-0.04239883
1	0x3d8147a8	0.063124955
2	0xbc0d9905	-0.00864244
3	0xbd1379e5	-0.03600492
4	0xbd2a89ef	-0.04163545
5	0x3b4bc0d6	0.003109028
6	0xbc741df0	-0.014899716
7	0x3b5b9f60	0.0033511743
8	0x3d0e030c	0.034670874
9	0x3d496ecc	0.04917793
10	0x3d30d382	0.04317046
11	0xbc5d0a99	-0.013491296
12	0x3d8cbd9d	0.06872103
13	0xbc9104b3	-0.017702436
14	0xbcabe30a	-0.020982284
15	0x3d95d73b	0.073164426
16	0x3d06152b	0.03273503
17	0x3cd080aa	0.025451977
18	0xbca1edf3	-0.019766783
19	0x3d7c393c	0.06157802
20	0xbd303ed7	-0.04302868
21	0xbbed13db	-0.007235033
22	0x3ce48e93	0.027900016
23	0x3d3d266d	0.046179224
24	0xbd6636ae	-0.05620449
25	0xbd7ad2aa	-0.06123606
26	0x3b686413	0.003546004
27	0x3cb783c2	0.022401694
28	0x3c48b3dd	0.012249914
29	0x3b964947	0.004586372
30	0x3d831b02	0.06401636
31	0x3cd0a802	0.025470737
32	0x3d533ca6	0.05157151
33	0xbb21c297	-0.0024682635
34	0xbd6e4155	-0.058167774
35	0x3d2227af	0.039588626
36	0x3d3e14f9	0.04640672
37	0x3da4649d	0.08027003
38	0xbd2cebe1	-0.04221714
39	0x3d2e7227	0.042589333
40	0x3c98a278	0.018632159
41	0xbcb1179c	-0.021617703
42	0xbc1b6e95	-0.009486814
43	0xbd31b0e5	-0.04338159
44	0x3ced6d20	0.028982699
45	0xbcca00a1	-0.024658503
46	0xbd2d6c77	-0.04233977
47	0xbcb49e31	-0.022048088
48	0x3d796fcf	0.060897645
49	0x3cf0d52f	0.029398529
50	0x38e2ee1d	0.00010820872
51	0xbc7ab7c3	-0.015302601
52	0xbcfe5290	-0.031045228
53	0xbd719415	-0.058979113
54	0x3cfb9855	0.030712286
55	0x3d4770a6	0.048691414
56	0xbc841942	-0.016125325
57	0x3d0fe66d	0.03513186
58	0x3bf1eee3	0.007383214
59	0xbd4b647c	-0.049656376
60	0x3d515789	0.05110887
61	0x3cedb1d1	0.029015454
62	0xbd329797	-0.0436016
63	0x3d5b7410	0.053577483
64	0x3d29d954	0.041467026
65	0x3d065e2f	0.032804664
66	0x3bdd63b7	0.0067562717
67	0xbd1cf83a	-0.038322665
68	0x3d4f9546	0.050679468
69	0x3c1848a0	0.009294659
70	0x3c8f7f87	0.017516864
71	0xbd5ee5e7	-0.05441847
72	0x3c9212e5	0.017831275
73	0x3d2f8532	0.042851634
74	0x3ac7692e	0.0015213841
75	0xbcb3aadb	-0.021932056
76	0x3d0cb0f7	0.034348454
77	0x3d252cf5	0.040326077
78	0x3b8d8b81	0.0043196087
79	0x3d02eff3	0.031967115
80	0x3d6a408d	0.057190467
81	0xbab5d44c	-0.0013872474
82	0x3d07440b	0.033023875
83	0x3c1cca42	0.009569706

fc2.weight f4 [10, 84]
0	0x3e25971d	0.16170926
1	0xbe8deabe	-0.27718157
2	0x3e46ad41	0.19402029
3	0xbe35e46b	-0.17762916
4	0xbd186ae5	-0.037211318
5	0x3b9c7ed8	0.004775863
6	0xbd6e050d	-0.058110286
7	0xbdda791e	-0.106676325
8	0xbcfbf4eb	-0.030756434
9	0xbe130210	-0.14356256
10	0xbd679027	-0.05653396
11	0xbcaf975d	-0.02143448
12	0xbe60e06f	-0.21960615
13	0x3ecff247	0.4061453
14	0xbd830c87	-0.06398874
15	0x3e069576	0.13142952
16	0x3e5ae4d1	0.21376349
17	0xbdc4f18a	-0.096163824
18	0x3cd5231b	0.026017716
19	0x3e71ee9f	0.23626183
20	0xbd958aef	-0.0730189
21	0x3daaa46b	0.083321415
22	0x3c5da9b1	0.013529227
23	0x3ce26b0c	0.027638935
24	0x3c177613	0.00924446
25	0xbdec7592	-0.11545862
26	0x3eacd4fa	0.33756238
27	0xbe9c9d01	-0.30588534
28	0x3de7e27a	0.11322494
29	0x3e8b70b5	0.27234426
30	0xbe9eafe7	-0.30993578
31	0xbd1f7913	-0.038933825
32	0xbbd6385e	-0.006537481
33	0x3cafae80	0.021445513
34	0xbdc95d00	-0.098321915
35	0xbd77a9ca	-0.060464658
36	0x3e84529a	0.2584427
37	0x3d2c03e4	0.041995898
38	0xbdb3a4b8	-0.08771652
39	0x3d50564f	0.05086356
40	0x3d8a092f	0.06740033
41	0xbdd1d313	-0.10245337
42	0xbe1a07ea	-0.15042081
43	0xbe1d71e6	-0.1537548
44	0xbe23203d	-0.15930267
45	0x3e0801e0	0.13281965
46	0xbe10ae7e	-0.14129063
47	0x3e567726	0.20943889
48	0x3d918d3a	0.07107015
49	0x3cfce6c9	0.030871766
50	0x3cd8f6ae	0.026484814
51	0xbd8fe618	-0.07026309
52	0x3e446604	0.19179541
53	0xbd87a157	-0.0662257
54	0x3dbf86fc	0.09351918
55	0x3e88fd30	0.26755667
56	0xbd470be0	-0.04859531
57	0xbe18dfb0	-0.1492908
58	0xbe052430	-0.13002086
59	0x3cff9b3c	0.031201951
60	0xbe5a6938	-0.213292
61	0xbe4a3a70	-0.19748855
62	0x3e811005	0.25207534
63	0xbcf9cf1f	-0.03049427
64	0x3e4cd487	0.20002948
65	0x3dcd1575	0.10013858
66	0xbd470d10	-0.04859644
67	0x3e447be0	0.1918788
68	0xbd663c55	-0.05620988
69	0x3dd70fe5	0.105010785
70	0x3c904426	0.01761062
71	0xbcd7eb12	-0.026357207
72	0xbddd96af	-0.10819756
73	0x3dbebbba	0.0931315
74	0xbdb69e61	-0.08916927
75	0x3ba3bab8	0.004996624
76	0xbe4a0b1f	-0.19730805
77	0xbe2b0b8b	-0.16703622
78	0xbeb2353e	-0.34806246
79	0xbdb91516	-0.09037225
80	0x3cee5809	0.029094713
81	0x3d14ed32	0.03635902
82	0xbdc67f57	-0.09692257
83	0x3d199d4b	0.037503522
84	0xbe092246	-0.1339198
85	0x3e04dbc5	0.1297446
86	0x3e3f5d89	0.18688025
87	0xbdd96cb4	-0.106164366
88	0xbd82c219	-0.063846774
89	0xbd55eee9	-0.052229796
90	0x3e5c85d9	0.21535434
91	0xbdcfbbf5	-0.10143272
92	0x3e046dc8	0.12932503
93	0x3df7180c	0.120651335
94	0x3d2f1847	0.042747762
95	0x3e0a5988	0.13510716
96	0x3e71449d	0.2356133
97	0x3cff8828	0.031192854
98	0x3d937956	0.07200877
99	0x3e3d83e3	0.18507342
100	0xbe14c9c3	-0.14530091
101	0xbde1a752	-0.11018242
102	0xbdbc3fd7	-0.09191864
103	0xbcc77caf	-0.024351446
104	0xbda6a497	-0.08136862
105	0x3e447347	0.191846
106	0x3cd129b6	0.025532585
107	0x3dde4e00	0.10854721
108	0xbd9eaa91	-0.07747377
109	0xbdd9089f	-0.105973475
110	0xbc1498bf	-0.009069621
111	0x3c6a32fd	0.014294383
112	0x3d7206e0	0.059088588
113	0xbe0b812b	-0.13623492
114	0xbe080ac0	-0.13285351
115	0x3d1ef4bb	0.038807612
116	0xbd95049a	-0.07276268
117	0xbcfe0a1f	-0.031010685
118	0xbe4ffa89	-0.20310415
119	0xbd2e065e	-0.04248654
120	0xbe903fcc	-0.28173673
121	0x3e93cd89	0.28867748
122	0x3dc5a8c2	0.096513286
123	0xbe34f5c4	-0.17671877
124	0x3dd96dc8	0.10616642
125	0x3de318bc	0.11088702
126	0xbe5f4d78	-0.21806896
127	0x3e18990d	0.14902134
128	0xbd9b72de	-0.075902686
129	0xbe080ae5	-0.13285406
130	0xbd96d9ce	-0.07365762
131	0x3ce1f82b	0.027584156
132	0xbe6bf3d6	-0.23042235
133	0xbdfbe5bf	-0.1229968
134	0x3da85b9b	0.08220597
135	0xbe10f4b5	-0.14155848
136	0xbdca1146	-0.09866576
137	0xbd95b1c6	-0.07309298
138	0x39c2acdc	0.00037131354
139	0xbd3967c4	-0.045264974
140	0x3c59eda0	0.013301283
141	0x3db39f49	0.087706156
142	0x3d81cbc8	0.06337696
143	0xbd992f8f	-0.07479774
144	0x3dd0d4de	0.10196851
145	0x3edfe62c	0.43730295
146	0xbdc9eb22	-0.09859301
147	0xbe15fa9f	-0.14646386
148	0x3c0d43c6	0.0086221155
149	0xbcb788d2	-0.022404108
150	0x3e3df8de	0.18551967
151	0x3e2759db	0.16342871
152	0x3e6f7b37	0.23386846
153	0x3d00c307	0.031435993
154	0xbd515298	-0.05110416
155	0x3c11f171	0.008907662
156	0xbd101826	-0.03517928
157	0x3eb629d0	0.35578775
158	0x3dfe44c5	0.124154605
159	0xbdb56fd2	-0.08859219
160	0x3da81f68	0.08209115
161	0xbe36f2c6	-0.17866048
162	0xbd794ab8	-0.060862273
163	0xbd0295cd	-0.031881142
164	0xbda97d4b	-0.08275851
165	0x3db232dd	0.08701108
166	0xbd61f18f	-0.05516201
167	0x3d7abcb5	0.06121512
168	0x3ebf2ba2	0.37337977
169	0x3d264e4e	0.04060202
170	0x3e924739	0.28569964
171	0x3d681e2b	0.056669395
172	0xbdbdaac6	-0.09261088
173	0x3e2c4534	0.16823274
174	0xbe1ba977	-0.15201364
175	0xbd500678	-0.05078742
176	0x3d2c8b1e	0.04212486
177	0xbdc9e555	-0.09858195
178	0x3b04624e	0.0020200196
179	0xbdd2094b	-0.10255679
180	0xbe87893c	-0.2647189
181	0x3e789992	0.24277332
182	0x3e310ae9	0.17289318
183	0xbde07513	-0.1095983
184	0x3df4dbe7	0.119560055
185	0xbaf93dae	-0.0019015574
186	0xbe47039d	-0.19434972
187	0xbda140c4	-0.07873681
188	0x3cc67473	0.02422545
189	0xbe17c498	-0.14821088
190	0xbb493afe	-0.0030705328
191	0x3d978a45	0.0739942
192	0x3d55906e	0.052139692
193	0x3d606051	0.054779354
194	0xbe3abbd0	-0.18235707
195	0xbe3b2bca	-0.18278423
196	0xbda9d396	-0.0829231
197	0xbca20f80	-0.019782782
198	0xbe96e168	-0.29468846
199	0x3c64ee08	0.013972767
200	0x3d8515d4	0.06498304
201	0xbe4dc089	-0.20092978
202	0x3d9b4571	0.07581604
203	0x3dbcce93	0.092190884
204	0xbe4f5988	-0.20248997
205	0xbd4c98f1	-0.049950544
206	0xbe7f0268	-0.24903262
207	0x3e08b801	0.13351442
208	0x3dbcfce5	0.09227923
209	0x3e81b2f5	0.25331846
210	0x3daf7c40	0.08568621
211	0xbc940271	-0.01806757
212	0xbd3e52ac	-0.04646556
213	0x3b0c82b1	0.0021440203
214	0x3e35aae7	0.17740975
215	0x3eacdbe1	0.33761504
216	0xbdd3d738	-0.10343784
217	0xbd13bdf5	-0.03606983
218	0x3dd76819	0.10517902
219	0x3e78eb20	0.24308443
220	0x3d75bdba	0.05999539
221	0x3e411491	0.18855502
222	0x3dcea228	0.100895226
223	0x3c8301eb	0.015992125
224	0x3d2c71b9	0.042100642
225	0xbdad38ce	-0.084581
226	0x3e2566e6	0.16152534
227	0xbdb3d417	-0.08780687
228	0x3eaa740a	0.33291656
229	0x3e33875e	0.17532107
230	0x3d98ccf6	0.07460968
231	0x3dbd13a4	0.09232262
232	0xbce58e21	-0.028021874
233	0xbe0e6be2	-0.13908342
234	0xbe238360	-0.15968084
235	0xbe4fda8a	-0.2029821
236	0xbe48aff0	-0.19598365
237	0x3e4fb384	0.20283324
238	0x3deb31dc	0.11484119
239	0x3e2c24dd	0.16810937
240	0xbe989410	-0.29800463
241	0x3e15a35b	0.14613096
242	0x3e2ee8fb	0.17081062
243	0xbccaa713	-0.02473787
244	0x3e5a9bfd	0.21348567
245	0xbe026cfb	-0.12736885
246	0xbe9c18e5	-0.30487743
247	0xbd83f949	-0.06444032
248	0x3c3cbb19	0.011519217
249	0x3bc1694a	0.005902444
250	0xbdc9e2c8	-0.09857708
251	0x3dc11d3a	0.09429403
252	0x3eb0b259	0.34511068
253	0x3ec95f12	0.39330345
254	0xbe3acb3e	-0.18241593
255	0x3dc8eef1	0.098111995

fc2.bias f4 [10]
0	0x3baec692	0.00533373
1	0x3ce6fe53	0.028197443
2	0xbd3a4f4f	-0.04548579
3	0x3dfd1035	0.12356607
4	0xbda77dbb	-0.08178278
5	0x3d5aa22a	0.053377308
6	0xbce1a46f	-0.027544228
7	0xbd91987b	-0.071091615
8	0xbb01c4fe	-0.0019801254
9	0xbbe387a5	-0.0069436603
